models/p03_compvisionpull4.pth (torch, 35026 bytes, 10 tensors)

conv_block_1.0.weight f4 [10, 1, 3, 3]
00000000: 1ef2 ae3e eea8 b03e ec92 08bf 9ca5 0f3e
00000010: 039c 123e deed 46bd 66f6 debe 6cfc 063e
00000020: f342 e73e b0d8 b2be 93ed d83e 6eaa 60bd
00000030: 3012 883e cdf3 e33e a84c 863d a021 f2bd
00000040: 1508 d93e 125b 4e3d 589a c5be df6a bbbd
00000050: 9e8c 1a3d c317 29bf e803 27bf 8aff 343e
00000060: a760 53bf 0109 34bf 12dd 02be d231 55bf
00000070: c561 67bf 7a90 34bf e188 963e aaae eabe
00000080: ffe1 9c3e e98f 993e f050 00be 114f 9c3e
00000090: 4397 993c 9bab 863e 11e7 cfbd 1ace 4cbe
000000a0: 40d0 6d3e 2ba1 61be 742e 41bd 996b bd3e
000000b0: c220 fd3d f65e 14be d1dd 3e3e 4838 763d
000000c0: 8b09 2b3e 813e 51be ff03 a9be 7e28 04be
000000d0: b213 83be 598c 843e 4fa7 1a3e 9be7 163e
000000e0: 7528 cebc a513 1cba c4fa d93d 1713 87be
000000f0: 63fb 8cbd a6f6 00bf acef 06bd 1895 0bbe
00000100: 3b36 f53c 3db8 1cbe fe40 b03e de57 95be
00000110: f0fe 8ebe 755b 1cbe 3e8f cd3e feb2 643e
00000120: b0d6 ec3e a978 b0be a24a e4be 7e76 84be
00000130: f861 a9be 9452 253e f48c c83e 810b e23e
00000140: 5f0d 05be f07a 68be 87c8 343e 0969 0abe
00000150: e81d 4e3e 7655 a5bd d1a0 413e e186 84be
00000160: e340 2cbe 9661 ce3d
0.34169096 0.34503883 -0.53349185 0.14028019 0.14317326 -0.04856669 -0.43547362 0.13182229
0.45168266 -0.34930944 0.42368755 -0.054850034 0.26576376 0.44521943 0.0655759 -0.1182282
0.4238898 0.05037982 -0.38594317 -0.091512434 0.03773176 -0.6605188 -0.65240335 0.17675605
-0.82569355 -0.7032624 -0.12779644 -0.83279145 -0.9038356 -0.70532954 0.29401305 -0.45836383
0.3064117 0.29992607 -0.12530875 0.30529073 0.018748885 0.263028 -0.10151494 -0.20000497
0.23223972 -0.22034137 -0.04716344 0.36996153 0.12359764 -0.1448935 0.18639304 0.060112268
0.16702859 -0.20434 -0.3301086 -0.12906072 -0.25600964 0.25888327 0.15102886 0.14736788
-0.025165776 -0.0005953855 0.10643533 -0.26381752 -0.06883886 -0.50376356 -0.032943413 -0.13631094
0.029933086 -0.15304656 0.34424585 -0.291686 -0.27928877 -0.15269263 0.40148348 0.22333905
0.46257544 -0.34467056 -0.4458819 -0.25871652 -0.33082557 0.16144782 0.3917004 0.44149402
-0.12993382 -0.22703147 0.1765462 -0.1351663 0.20128596 -0.08072941 0.18909003 -0.25884154
-0.16821627 0.10077207

conv_block_1.0.bias f4 [10]
00000000: be42 71bd 567a 403d 965c 343e f323 ca3d
00000010: 8505 153d a0bc 4dbe 9590 033e cb4d 0ebd
00000020: 134d 99bd 01ed a5be
-0.05890154 0.04699167 0.17613444 0.09870138 0.036382217 -0.20091486 0.12848122 -0.034742158
-0.07485404 -0.32407382

conv_block_1.2.weight f4 [10, 10, 3, 3]
00000000: 95b1 143e 478a ac3d 2ee9 36bc 6972 efbd
00000010: a9da 26be 8b2d 3cbe 5360 87bd 482b 4dbe
00000020: 8448 25be 667a 97bd 39c8 1dbc 20cb b7bd
00000030: fb84 48be 5b65 afbe efd9 82be 3198 f4bd
00000040: 7794 5bbe 3299 65be 9e9b e6bc 28da ad3c
00000050: a54f 143e 8ec7 743d 7dfa 7b3e e4d0 443e
00000060: 6568 cfbd 74b5 8539 19be ed3d 5abc 4cbe
00000070: b336 2dbd f111 41be b577 ab3b ed58 02bd
00000080: 2b63 1cbe f3f6 203e db4f 463d c711 0d3d
00000090: 388b 15be da45 1abe 7d5d 21bd 7524 98bd
000000a0: fdb8 8635 7056 15be a247 a73d 8f24 d8bd
000000b0: 6080 49bd f1e6 b73c 9b46 603d 253f ad3d
000000c0: c3da c43d 212e abbd b064 e83c 5d49 38bd
000000d0: 79c1 4dbc b2e4 9ebd 2814 453e b879 01bd
000000e0: 4c83 6abc 4db0 f23d ead3 9b3d 946d 56bd
000000f0: 7ff6 a53d 58f5 8b3a 7edf 24bd 50b5 b1bd
00000100: 29e2 403d b200 14bc 246b 41bd c7d6 b73d
00000110: 7e70 8a3c d37d 3ebd 1ee0 87bd 362f 0ebd
00000120: 3caf ab3d 8da4 3cbc ef4a 3abd b8a9 f1bc
00000130: 3c2a 8ebd f31e 883d 8478 fd3d 9a2a c0bd
00000140: e09a 0fbc 4507 5f3d b98c 9c3c 79c1 19bd
00000150: bc57 613d c6e4 623d 8674 213d d8bc 97bc
00000160: b6a4 e4bc 0fa6 383c e1ef 07bd 2961 1cbd
00000170: ec36 8e3d 63a0 c23d a58c 903a fb33 17bc
00000180: eb78 82bc 0f09 cdbb cf82 d63c 5779 f93c
00000190: 2c87 b0bd bca1 d1bc 372d bd3d 01c5 4a3d
000001a0: 8393 0d3c 0965 cfbd 915a a3bd d6a5 c1bd
000001b0: 9617 0fbd ca8c 0a3d b5a7 7a3d 47a7 463d
000001c0: 853d c2bd ca52 8fbd 5796 91bc b4eb d23d
000001d0: 59df 2d3c e39d 453b d80f 7a3d f10b 17bd
000001e0: f1bc 87bd 193d 9e3d d66a 51bd 8a76 dabc
000001f0: 6238 e0bd b861 8a3d 4d46 993d 2ec2 163d
00000200: 4838 92bd c4c2 f5bd 93ff c5bd 1148 9c3d
00000210: 2004 0a3d ac73 a93d 3683 5d3d 83ac da3c
00000220: 7c3f 82ba 8d1f a4bd 88a2 b8bd 78fa c9bd
00000230: e7d7 313d e7ca 53bd a76a aebc 2830 78bd
00000240: f9c1 d1bc 5829 a4bd 5c6a 94bd fb25 243d
00000250: 1ffb f0bc 1b00 8f3d cb5b d2bc c482 a5bd
00000260: c694 b1bc ac12 41bd 5333 e7bc aa99 cbbd
00000270: 3306 7a3d 23ca 95bd 6de2 5f3d 674a 413d
00000280: 860a a03d 87e3 a2bd a121 a33d 044f 42bd
00000290: c444 2f3d 2b4a c13d 0f59 86bc 4e0f 02ba
000002a0: 7a96 e4bc 1295 b5bd 2722 5c3d 954e d6bd
000002b0: 1cfc 853d 8787 a13d 041f cc3d 77d2 cbbc
000002c0: 7565 b1bd 5525 c23c 1784 6e3d 47dc d6bd
000002d0: 95fe cdbc fa18 83bd 2471 16bc 92a8 55bd
000002e0: 3980 31bd 80ce 05bd 6e58 d1bd 5520 b43d
000002f0: 31ce b73d 187b 87bc e69a 43bc 3920 2cbd
00000300: 4e82 c6bd 4e85 d3bd bfcc 1e3d 6453 7ebd
00000310: 9e06 8fbd ff80 c4bb c9f5 13bd cd6a 12bd
00000320: 4736 fc3a a87e a5bc f821 0abd 1472 49bd
00000330: d051 acbd f621 b53d c769 2bbd 374d dc3c
00000340: e520 19bd 9a0a 053c eb73 c63d 6a3e 443d
00000350: e3a4 b8bd 4274 213d 3a90 ca3d b6bd ee3c
00000360: 657b 903d 77f2 d43d 4792 83bc bd0b ad3c
00000370: fffc 97bd ba37 bbbc c7ee 993d 51ba 593d
00000380: 8909 88bd dc1c adbd ec85 93bd 440e d5bd
00000390: 7b94 a6bd 4c2a d6bc 7312 923d 6238 903c
000003a0: 39cb a3bd 6c2b adbd af67 4d3d f204 a5bd
000003b0: 78ee 77bc 755b 513d 5b23 4abd c8cd 21bc
000003c0: 89a8 14bc e60b c7bc dd26 5cbd d173 c0bd
000003d0: 417f aebd 022e 67bd 902e d03d 436d 51bd
000003e0: 51c9 92bd 2cc5 d33c 01a6 f63c 923d 713d
000003f0: 6459 a33d 7212 703d ac0e d6bd eb9a 163c
0.14520867 0.08424812 -0.011163993 -0.11691744 -0.1629435 -0.18376748 -0.06610169 -0.20036042
-0.16140944 -0.073963925 -0.009630256 -0.0897429 -0.19581978 -0.34257016 -0.25556895 -0.11943091
-0.21443354 -0.2242172 -0.028150376 0.02122219 0.14483507 0.059760623 0.24607272 0.1922031
-0.101273336 0.0002550293 0.11608524 -0.19993725 -0.042288493 -0.188545 0.005232776 -0.031823087
-0.15272205 0.15719204 0.048416 0.034440782 -0.14603889 -0.15065709 -0.039395798 -0.074288286
1.0037617e-06 -0.14583755 0.0816796 -0.10553848 -0.049194694 0.022448989 0.054754835 0.084593095
0.09612038 -0.08358408 0.028368324 -0.04499184 -0.0125583345 -0.07758464 0.1924597 -0.03161022
-0.01431353 0.11850033 0.07608779 -0.052350596 0.08103656 0.0010677977 -0.0402522 -0.08677161
0.047090683 -0.009033369 -0.047221318 0.089765124 0.016899344 -0.046506714 -0.06634544 -0.034712993
0.08383033 -0.011513841 -0.04548162 -0.029499874 -0.06941649 0.06646528 0.12376502 -0.093831256
-0.008764952 0.054450292 0.01911007 -0.037538026 0.05501531 0.055393957 0.039417766 -0.018522665
-0.027910572 0.01127006 -0.03318775 -0.038178597 0.06944069 0.095032476 0.0011028243 -0.009228702
-0.015926799 -0.0062571834 0.026185421 0.030453367 -0.08619532 -0.025589816 0.0923714 0.049504284
0.008641127 -0.10126693 -0.079762585 -0.09455459 -0.034934603 0.033825673 0.061195094 0.04849937
-0.0948439 -0.06998213 -0.017771883 0.10298863 0.010612332 0.0030153922 0.061050266 -0.036876623
-0.066278346 0.07726497 -0.051127277 -0.026667852 -0.10948254 0.067569196 0.07484112 0.036806278
-0.07139641 -0.12000039 -0.096678875 0.07630933 0.03369534 0.08274016 0.05408021 0.026693588
-0.0009937133 -0.0801383 -0.090153754 -0.09862226 0.04341879 -0.051707175 -0.02129109 -0.0605928
-0.025605189 -0.08015698 -0.07246849 0.040075283 -0.029416619 0.06982442 -0.025678536 -0.08081582
-0.021677386 -0.047136948 -0.028222715 -0.099414185 0.06104107 -0.07313945 0.054659296 0.047190096
0.07814507 -0.07953554 0.079653986 -0.047438636 0.04279019 0.094379745 -0.016399888 -0.0004961387
-0.027903784 -0.088663235 0.053743508 -0.10464207 0.06542227 0.07887178 0.09966853 -0.02488063
-0.086619295 0.023699442 0.05823144 -0.10491233 -0.025145808 -0.06401248 -0.009182248 -0.052162714
-0.043335173 -0.032667637 -0.10221945 0.08795229 0.08974875 -0.016538188 -0.011938786 -0.042022917
-0.096928224 -0.1032816 0.03876948 -0.062091246 -0.06983684 -0.005996823 -0.03612307 -0.035746384
0.001924225 -0.020201996 -0.0337238 -0.04918106 -0.08414042 0.08844368 -0.041848924 0.026892288
-0.037384886 0.008120203 0.09690078 0.047911085 -0.09015825 0.039417513 0.0989079 0.029143196
0.07054786 0.10397809 -0.016060961 0.021123761 -0.07421302 -0.022853721 0.07516246 0.0531562
-0.06642444 -0.0845277 -0.07203278 -0.104031116 -0.08133789 -0.026143216 0.07132425 0.01760501
-0.07997746 -0.08455548 0.05014771 -0.08057584 -0.015132539 0.05111261 -0.049350124 -0.009875722
-0.009073385 -0.024297666 -0.053748 -0.0939709 -0.085203655 -0.05644036 0.10165131 -0.05112959
-0.07167304 0.025850855 0.030108454 0.05889661 0.07976034 0.05861134 -0.10452017 0.009192209

conv_block_1.2.bias f4 [10]
00000000: 53bf c13e c98f 62bd e3e5 54bd 835b 003f
00000010: 15d2 98bd 8d51 b73d eee8 593e 492d 4ebc
00000020: 5ff7 5e3e 4af1 843d
0.3784128 -0.055312905 -0.05197705 0.50139636 -0.07461945 0.089511015 0.21280262 -0.012584039
0.21774052 0.06491335

conv_block_2.0.weight f4 [10, 10, 3, 3]
00000000: 6e10 86bd 5f0b 06be 6dcc 94bd f5a8 57bd
00000010: fb92 9dbc 01c9 d83d acfa c6bd 0192 173d
00000020: b217 d43d 1a9a 733d 2aac c6bd 0c7d 25bd
00000030: 0e81 b6bd 54ce 88bd 283f 6d3d a30b 52bc
00000040: 1d94 3b3d 44b7 79bd 53e5 823c c1ae 82bd
00000050: 74bb 573d aaa8 3cbd 1e50 d5bc 8041 bbbd
00000060: bc30 a139 0d6a cc3d 63d7 513d 3bf0 e8bd
00000070: 2910 b7bb 0594 a9bd 8200 e1bd a8f5 2d3d
00000080: 54a5 e8bd f053 a03d c063 b6bd 13d1 d3bd
00000090: 2b65 833c 44cf 233d 966b 8b3c 26cf bfbc
000000a0: 47fe d93d 3a46 c1bc 3727 cbbc 5c82 1bbd
000000b0: 0f73 d83d d624 4abc 71a6 85bd 2431 b4bd
000000c0: 2a81 53bc a22e d8bd c155 d7bd 0796 0d3c
000000d0: 9813 7d3d 53f6 8d3d 3e36 21be 7b4d db3d
000000e0: e953 04be 6828 c63d a7da 103e 4a95 d13c
000000f0: 0e56 a93e 9975 d23d a2bc f6bb 0115 e43c
00000100: 45b6 a7bb ffdd b43c e1cd 5abc 1918 0a3d
00000110: f9fb efbd a7b4 a83d 645c 94bd 4ada 21bd
00000120: 8556 02be 8674 b0bd 5135 14bd 56e9 a53d
00000130: 4138 d43d d974 3e3c f9ed aa3c c610 b6bd
00000140: 771c 8a3c bf73 ca3d 2965 e8bd 498e 0dbc
00000150: bb7e 0a3e 73f0 bb3c c71c d2bd 3871 9b3d
00000160: dfd3 443d edab 6b3c dad7 8c3c 6ced 49be
00000170: 794b 27be b24b db3d 81ed 9dbe e4a1 a7bd
00000180: 49b1 b23d 1ad7 173e 096d 9cbd 54db 2b3d
00000190: f7ab 36bd 36da dbbd f757 29bd 5166 b93d
000001a0: 11f7 d3bc 5152 e53c a4c2 22bd f579 943d
000001b0: 677b 813d 7a9a 1d3d cefb 52bd 3589 b1bd
000001c0: 9c70 8e3b 4d17 7dbd 203b b13d cda0 cfbd
000001d0: 3f65 413d 8fab 5dbe 8f74 b53e d5bf 933e
000001e0: 10b4 30bd 297d 5d3f 2d57 9a3e 5110 61bf
000001f0: da9c d5bd e69f cabd 3121 4e3c 2294 f33d
00000200: 670b 9cbc 539f 99bd ae09 93bd f1e1 0abd
00000210: e53b 6c3d b998 08be 86e1 c0bd e140 a23c
00000220: 0c8e c7be a9fb 99bd e479 4a3e 6c10 f63d
00000230: 8f2c c13d 6b8f 2f3d 899f 6a3e 5b17 453e
00000240: bc55 2dbf 5b81 d93c 80ee 443e 43d0 09bf
00000250: e3e6 b43e 4d37 e33e 4ee1 bdbe 2ce4 7ebd
00000260: c9cd 10bd 10b4 aabd 65b1 a2be b461 6fbd
00000270: e0d7 9fbe 4a8d 9ebd b297 04be 667b 9ebe
00000280: 898c 1fbe 9875 27be 61ec e1be a175 a53d
00000290: 1ddd ce3e 1606 29be f1ec b23e c9ca bb3e
000002a0: 61e0 90be 0e25 4cbd 1e34 35be 4efe 963e
000002b0: f3e8 d5bd ac70 10be 21dd 353e 2621 833d
000002c0: b0ac 37be af37 65be 3876 133e ca61 903d
000002d0: 2618 0dbd 623d 973d 5818 853d fdb2 92bd
000002e0: 5573 e5bd 5a86 c3bd 3440 90bd 00ed 80bd
000002f0: ed44 dbbc 838c cfbc 44f2 5abd 0ada 09bd
00000300: 0ba1 1dbd 1d02 d33d 5907 1fbd 7eb6 9abd
00000310: feb2 333d e7cb d2bb fe53 a53d 01d8 863d
00000320: 7775 c63d 4302 9ebd ffca 8a3d 062b b53d
00000330: 8439 55bd 487b c63d a4d0 a13d 4284 09bd
00000340: ac10 7f3d 3682 01bd cf05 03be aa4a 783d
00000350: 8e82 703d 7cb9 e3bd 3a5e f83c 7b7b f1bd
00000360: 6cb7 ac3d e1ef cb3d d47b a63c 2762 88bd
00000370: 3836 843d 5045 d03c 2472 433c e259 c63c
00000380: 631e 8d3d 4f93 0bbd c7aa d5bc 242f 3d3c
00000390: 1184 813b 7e9c b83d cbc4 e8bc 02e2 cabc
000003a0: d714 d33b b89f ecbc c0ac 3f3d 530a bdbb
000003b0: 53a1 91bd 1207 9ebc d63f 52bd 2c9d 453d
000003c0: 5341 24bd f6ef 02be 1413 9bbc 93b9 95bc
000003d0: 85fa 28bd 04da d13d 6e79 c6bc d225 9c3d
000003e0: 50be 213d 20f3 d8bd 98d4 8a3c 02e0 a03d
000003f0: f370 c9bd b018 a5bd acdf dc3d 3f80 823d
-0.065461025 -0.13090275 -0.072655536 -0.052651364 -0.019235125 0.105852135 -0.097157806 0.037004475
0.10356082 0.059473135 -0.097008064 -0.040402457 -0.08911334 -0.06679979 0.05792156 -0.012820157
0.04579555 -0.06096579 0.015978491 -0.06380988 0.052669004 -0.046059288 -0.02603918 -0.091433525
0.00030744623 0.09981165 0.0512308 -0.11373945 -0.0055866432 -0.082801856 -0.10986425 0.042470604
-0.11359659 0.0782851 -0.089057446 -0.10342612 0.016039452 0.039992586 0.017019074 -0.023414206
0.10644203 -0.023593057 -0.024798973 -0.037966117 0.10568821 -0.012337884 -0.06525887 -0.08798435
-0.012909213 -0.105557695 -0.10514403 0.008641726 0.061786264 0.06931748 -0.15743348 0.107081376
-0.12922634 0.09675676 0.14145909 0.025583882 0.33073467 0.10276336 -0.007529811 0.027842047
-0.005118164 0.022078512 -0.013354749 0.033714388 -0.11717982 0.08237582 -0.072441846 -0.039514817
-0.12728317 -0.08615975 -0.03618366 0.08101146 0.10362292 0.011624538 0.020865427 -0.08889918
0.016859276 0.09885358 -0.1134742 -0.00863988 0.13524906 0.022941804 -0.10259395 0.07589954
0.04805362 0.014384252 0.01719277 -0.19719476 -0.16337384 0.10707797 -0.30845264 -0.08185175
0.08725221 0.14828148 -0.07637984 0.041957214 -0.044597592 -0.1073498 -0.041343655 0.090527184
-0.025874646 0.027993353 -0.039736405 0.07249824 0.06322365 0.0384774 -0.05150967 -0.08668748
0.00434692 -0.0617898 0.08653855 -0.10138092 0.047215696 -0.21647476 0.3544049 0.28857294
-0.04314047 0.86519104 0.30144635 -0.8791552 -0.10430308 -0.098937795 0.012581156 0.118934885
-0.019048406 -0.07501092 -0.07179581 -0.03390688 0.057674307 -0.13339509 -0.09418015 0.019806327
-0.3897556 -0.075187035 0.1977306 0.12014851 0.09432327 0.042861383 0.2291242 0.1924719
-0.67708945 0.02655094 0.19231606 -0.5383341 0.35332403 0.4437813 -0.37085956 -0.06222932
-0.035352502 -0.083351254 -0.31775966 -0.058442786 -0.31219387 -0.077417925 -0.12948492 -0.3095352
-0.15580954 -0.16353452 -0.44125655 0.080790766 0.4040307 -0.16506228 0.34946397 0.3667815
-0.28296188 -0.049840026 -0.17695662 0.29490894 -0.10444822 -0.14105481 0.17760135 0.06402807
-0.17936969 -0.22384523 0.14400566 0.07049902 -0.034446858 0.07384755 0.06498784 -0.071630456
-0.112036385 -0.0954711 -0.07043496 -0.06295204 -0.026766265 -0.025335556 -0.0534537 -0.033655204
-0.03848366 0.103031375 -0.038825367 -0.07554339 0.043871872 -0.0064329985 0.08072661 0.06584168
0.096903734 -0.07715275 0.06777 0.08846097 -0.052056804 0.09691483 0.07901123 -0.033573397
0.06227176 -0.03161832 -0.12795185 0.06061808 0.058718257 -0.11119363 0.030318368 -0.1179113
0.084334224 0.09957863 0.020322718 -0.06659346 0.06455654 0.025423676 0.011929069 0.024212781
0.068905614 -0.03407603 -0.02608241 0.011546884 0.003952511 0.090142235 -0.02841415 -0.024765972
0.0064416933 -0.028884754 0.046795607 -0.005769053 -0.07110848 -0.01929048 -0.05133041 0.048245594
-0.04010136 -0.1278685 -0.018929996 -0.018276965 -0.04125454 0.10246661 -0.024227824 0.07624401
0.039488137 -0.105932474 0.016947076 0.07855226 -0.098359965 -0.080613494 0.107848495 0.06372117

conv_block_2.0.bias f4 [10]
00000000: 361d 0cbe 42d8 493e 01ac 13bd 9fcd 2abe
00000010: e4e4 66be 14fe 00bd ea12 4d3e 037c 073f
00000020: f834 403f 77ae 99bd
-0.13683018 0.19711402 -0.036052708 -0.1668 -0.22548252 -0.031492308 0.20026746 0.529236
0.75080824 -0.0750398

conv_block_2.2.weight f4 [10, 10, 3, 3]
00000000: 26a0 edbd 4ddf 0dbe 34d9 d9bd 557d 99bc
00000010: 6d90 cf3c 3ffe 3c3d 0765 a93c 680a 24be
00000020: 07ce 3c3d 2c24 6bbd 247b 9abe 6af0 ebbd
00000030: 0372 8fbd 90e5 833c baee e9be 22fa b53e
00000040: 45bc 593e 71ae 3abf 07a3 8cbb 49c9 b23b
00000050: adb3 a83d 8639 02be 08fc 8b3d 5e1e 473c
00000060: 9bde 9fbc 8793 9d3d ba00 cbbd d206 01bd
00000070: 9e52 a23d 068e 9dbd 2345 92bc 0dc9 a1bd
00000080: eee8 abbc e903 333d ec82 9ebd 2de2 afbd
00000090: f934 f7bd 1445 33be 0b32 61bc da4c 9b3b
000000a0: 399d ffbd 2a81 83bd 58f5 29bd ca1f 03be
000000b0: 8eed 12be 5f14 56be 040e ddbd 771e 963d
000000c0: 328d 83bd cdaf 19bb 945c cf3d 8570 ecbc
000000d0: 2345 c9bc 32d0 0bbd 81f6 e5be e24d c9bd
000000e0: 22a7 23bf d629 62be 4159 a53d 16e8 8e3e
000000f0: 8323 95be 71ae ed3d 23a5 073f d961 da3e
00000100: b26d 883d 37c3 8abe 227a 0fbc ef83 a0bc
00000110: 5328 ff3c bf98 80bd 1ac6 ffbd 9ec0 f0bc
00000120: 4bd8 c53e 1f59 c4bd 1c8d fb3d 6e62 ecbd
00000130: 04bd cfbe ecc6 813e e2b4 c0be d08f cfbe
00000140: 1dd9 4cbe 5f58 90bd d48c 353d 14cd 56bd
00000150: b5e8 183d e41b a8bd 92a0 81bd 392d 413d
00000160: f6de 1ebd 2a12 60bd 9a37 fb3c d38d 8f3c
00000170: 32cd d13c 3af8 fcbd 8586 263c 4eb6 02bd
00000180: f924 683d ac21 41bd 346b 833c 37cf 193d
00000190: f461 473e 0418 85be d67a 6e3d 081e 95be
000001a0: 9eed a33e 8d6d 09be 285b 58bf 59fb 803e
000001b0: a907 163c 928b e9bb 5353 b73d 1c91 a13d
000001c0: 1834 bbbd 1640 a0bc ded3 0abd 7d63 eebd
000001d0: cca6 11bd 5150 d6bd cb76 63bd 5f04 1abd
000001e0: fe00 3b3d bf09 41be 1eb1 31be 3c8c 90bc
000001f0: 4e51 62bd 7eaf f8bc a9df 07bd 0809 a53d
00000200: 0325 5b3d 3855 bc3d 67dd 33bd 5103 243d
00000210: 42a8 2b3e 1a3e e63c 9ab1 f9bd 8907 5c3d
00000220: 79e0 153e 86f7 da3d 7e70 d73d 8a2f 86bc
00000230: 70be a83d 6de6 853e 8c72 053e 84da 87bc
00000240: c5dc 93bd b8f0 8a3c 239e 4c3e 25de 78be
00000250: f8d7 dd3c db16 cf3d 8496 e73d 415e 723d
00000260: 0fed 68bd 67aa 4d3c c62d d2bd 9151 2e3e
00000270: 5b10 85bd ac74 03bf 2b6a dc3c a73b ec3d
00000280: 03ac 13bf 0cea a53e c61d 80be 86c5 25be
00000290: b9d0 90be 068b 5b3e aa2d 0c3e 6363 f5be
000002a0: 615f 493e ff3a 273e 8c31 06be 6b11 e8bc
000002b0: 7317 a53d a817 013e e964 72bd 5357 7cbd
000002c0: 87d6 243d d428 c2b9 c69f e5bc e886 c5bd
000002d0: bdcd f73d 85c2 453d 0d8d 2fbd 7bea 16bd
000002e0: bd74 923c e9a7 1fbd b252 efbb 041e fe3d
000002f0: d817 0ebd 329c 08bf 2392 9b3d 7b42 07bf
00000300: 2d29 01bf 601b 043f e809 3ebe ca12 21be
00000310: a698 b9bc 5c2b f23e ed03 83bc f4c7 13bd
00000320: 6b0b cdbc 617c dbba 8d53 183d 2fb6 683d
00000330: d88e 113c 87a6 93bd b03a 833d 6032 a8be
00000340: b6e7 8f3d c108 6a3d 1d48 153e 4811 b93d
00000350: 3d06 f0bd bd90 2d3e 016a 0fbe e02d 13bc
00000360: ab43 ed3d c839 43bd 0b1a a1bd 08ab fcbc
00000370: 5ca1 ed3d 687e 19be fd6f b13d 94f6 df3d
00000380: 901f 0bbd 5c55 343e ef9e 9a3c eb22 76be
00000390: 61b9 573e d579 3e3c e588 03be a17a 993d
000003a0: 297a 7b3d eb9e 3bbe 4970 f3be 131a 2fbe
000003b0: d727 ae3e 9ce5 57be 3e2b 9d3d a8e6 2fbd
000003c0: 58a3 02be 3154 543e f9a6 5e3d ad85 59be
000003d0: 4010 183f c29a 24bc 0fbc b4be f2be 573e
000003e0: 6fc1 b7bd 1124 593d 50ba 94be 998a bb3b
000003f0: 79c8 14be 7dcd 8cbe 98f4 983d 4a50 79bd
-0.116028115 -0.13854714 -0.10637131 -0.01873652 0.025337422 0.046140905 0.020678056 -0.16019595
0.04609492 -0.057407543 -0.30172074 -0.11520465 -0.07004168 0.016100675 -0.45689946 0.355424
0.21263225 -0.72922426 -0.0042918953 0.005456124 0.082373954 -0.12717256 0.068351805 0.012153236
-0.019515326 0.07694154 -0.09912248 -0.031500645 0.07925914 -0.076931044 -0.017855233 -0.078996755
-0.020985093 0.0437049 -0.07739815 -0.085880615 -0.120706506 -0.1750682 -0.013744841 0.004739386
-0.1248116 -0.064211205 -0.041493744 -0.12805095 -0.14348432 -0.20906208 -0.10793689 0.073300295
-0.06423415 -0.0023450733 0.1012508 -0.028862247 -0.0245691 -0.034134097 -0.4491463 -0.09829308
-0.639269 -0.22086272 0.080736645 0.27911443 -0.29128656 0.11605538 0.52986354 0.42652777
0.06661548 -0.27102062 -0.008757146 -0.01959416 0.031147158 -0.06279134 -0.12488957 -0.029388722
0.3864158 -0.09587311 0.12282774 -0.115422115 -0.40573895 0.25347078 -0.37638003 -0.40539408
-0.20004697 -0.070481054 0.044323757 -0.05244167 0.0373313 -0.08208445 -0.063294545 0.04716227
-0.03878685 -0.054704823 0.030666161 0.017523682 0.02561054 -0.12352033 0.010163908 -0.03191214
0.056675885 -0.047151253 0.01604233 0.03755113 0.1947096 -0.25994885 0.058222614 -0.29124475
0.32017225 -0.13420697 -0.84514093 0.25191763 0.0091571 -0.007127234 0.0895144 0.078890055
-0.091407955 -0.019561809 -0.03389346 -0.1164007 -0.03555946 -0.10464538 -0.05553321 -0.037601825
0.045655243 -0.18851374 -0.17352721 -0.017644994 -0.05525332 -0.030357119 -0.033172283 0.08058363
0.053502094 0.09195942 -0.043912318 0.040042225 0.16763404 0.028105784 -0.12192078 0.053718124
0.14636411 0.106917426 0.10519503 -0.01638009 0.08239448 0.26152363 0.13031977 -0.016583689
-0.07219843 0.016960487 0.199822 -0.24303491 0.027080521 0.10111781 0.113080055 0.05917192
-0.0568667 0.012552834 -0.10262637 0.17023303 -0.0649726 -0.513499 0.026906094 0.11534815
-0.57684344 0.32405126 -0.25022715 -0.1618863 -0.28284243 0.21439752 0.13689294 -0.4792739
0.1966529 0.16331099 -0.13104838 -0.028328618 0.08061113 0.1260668 -0.059178267 -0.061606716
0.04024365 -0.00037032983 -0.028030287 -0.09644872 0.12099788 0.04828121 -0.042859126 -0.03684471
0.01787793 -0.03897849 -0.007303559 0.12408069 -0.034690708 -0.53363335 0.07596233 -0.52835816
-0.50453454 0.5160427 -0.18558466 -0.15729824 -0.022655796 0.47298706 -0.015993083 -0.036079362
-0.025029859 -0.0016745442 0.037189055 0.05681437 0.008884154 -0.07209497 0.06407678 -0.32850933
0.07026617 0.057137255 0.1457829 0.09036499 -0.1171994 0.16949745 -0.14005281 -0.008983105
0.11585172 -0.047662526 -0.078662954 -0.030843273 0.116030425 -0.14989626 0.08663938 0.10935703
-0.033965647 0.17610687 0.018874614 -0.24036758 0.2106681 0.011625727 -0.1284519 0.07494093
0.061395798 -0.18322341 -0.47546604 -0.1709979 0.3401477 -0.21083683 0.076742634 -0.04294458
-0.12757623 0.20735241 0.054358456 -0.212424 0.59399796 -0.010046663 -0.35299727 0.21068934
-0.089724414 0.05301291 -0.29048395 0.0057233092 -0.14529599 -0.27500525 0.074685276 -0.060867585

conv_block_2.2.bias f4 [10]
00000000: c3db 3e3e bea5 0abe 3c79 8d3e f2b9 913d
00000010: 4218 9fbd 1a74 603e 6e9c 153e 88a7 09be
00000020: 3bc2 993b 2408 cdbc
0.1863852 -0.13539788 0.27631557 0.071155444 -0.07768299 0.21919289 0.14610454 -0.13442814
0.0046923435 -0.025028296

classifier.1.weight f4 [10, 490]
00000000: 24fe b0ba 2244 e5bd 70e4 0e3e 5975 eebd
00000010: 0cab c93d 89fa 14bd 4038 a13d 7853 af3d
00000020: 90be 7f3e bcc3 843d b21c 43be 15e1 023e
00000030: ae43 f93d 876e 413d b5f8 173d eb06 653d
00000040: 2414 d73d 2e7d 75bd 7bad c23d 4ae4 433d
00000050: 79a4 b3bd 0c3d 1ebb ad71 093e 497b 353d
00000060: 74cd 573d 300c 213e 1ecb 563d 06a8 64bd
00000070: 1aac 9ebd a632 833c c922 98bd 91e9 0fbd
00000080: 77e0 cb3d 459e e2bd fbd0 113d 5375 1b3d
00000090: 9ee3 f6bd 776b 033d 8d37 23be 862f f6bd
000000a0: 1ecc 263e e864 9ebd c35a a23d a6ec 34be
000000b0: 8adb 34be 28aa e7bc 85e1 acbd 6971 8f3e
000000c0: 5842 53bd a89a 2b3e a80f 8a3d f942 24be
000000d0: aef6 37be 41d8 d03d db70 a9bd 4410 853d
000000e0: 356c 8f3d a934 09bd 2839 4cbe 1c85 923c
000000f0: a9fa 17bd 5c9c 693c 1470 4c3c d3e6 9a3c
00000100: 74fe 5d3e ea0a bcbd b235 d23c 5e8d 2ebd
00000110: 2c67 723e cdb7 b43d fb79 ad3d 0ca8 8b3c
00000120: 36d6 76bb 6053 6ebd c098 03bd 847e 733e
00000130: cdad 853c b99a 753d 543b c4bc 7dbd aabd
00000140: 6030 bbbd d482 0e3d 0529 3f3e c006 b7bd
00000150: 8957 1abe bcf6 36bd 9ab9 e3bd f29f bfbd
00000160: ce78 87bc aa9c 2e3c 0e19 16bd 4420 d7bd
00000170: f07a 54bd 50d6 4f3e db91 b0bd acea 0dbe
00000180: 2e53 e43c 02b3 323a 1687 a73d 1c36 343d
00000190: 0e3d 823d ae21 d2bc da2e 9b3d d279 193e
000001a0: e2ff d4b9 1678 583e 54ed 733d 55ee 3dbd
000001b0: 2e40 b33c 0bd4 10bd 6629 933d 6296 043c
000001c0: 7edb 213d 2dec 0e3e 4c03 843e 389b acbc
000001d0: 6ccb b83c 80e7 94bd bf64 fdbd 1724 fcbb
000001e0: c44c 03be 0a14 043e bd8d 31be 473b c7bd
000001f0: 5eb1 083e c457 f3bd 6660 5fbe c2e3 d33b
00000200: d373 403d a874 95bd 898b 18be 3776 ba3d
00000210: 6279 8a3d e25b e5bd 2929 cc3d cb51 833b
00000220: 4375 e2bd 51d5 e4bd c3b4 81bd 7d8b 4b3d
00000230: 0d2e 65bb 177e 013e b4e5 e13c ca76 09be
00000240: 74a8 84bd 9d34 48be 211e ffbd e860 f23d
00000250: 7e41 07be 95dc c6bd 01a7 90bc 7031 ce3d
00000260: eb2c 2e3d 2193 dabc 7b2e c0bd 349e 6abd
00000270: 4d7a d7bd e266 47bc 7e69 b8bb 8f23 1cbe
00000280: 86bf 01be 3d75 fabd 21e4 db3c 32a8 63bd
00000290: 854c 053d 1791 0abd 3b83 64bd 3754 8c3d
000002a0: a6ba 2c3c 0995 103e a5f9 62bc d054 a23c
000002b0: 788c af3c e29b db3c 2457 353e 721d 17bd
000002c0: 794e 323e f799 14bd dfc3 a0bd 0222 12bd
000002d0: 94fc 8bbd d85b 543e 4559 80bd 77c2 773e
000002e0: af9d 1fbd 2ef0 9abd 2344 26bc 7fb9 9abc
000002f0: cecd 203e 5400 933c 29a5 3b3d 0206 90bd
00000300: 1ace 5c3c 3eca 8dbd 7a02 e2bc d1ab d63d
00000310: e69a ca39 1469 213b 0867 debc feee 1ebd
00000320: 2d97 123d 69de cc3c d112 193a eb98 813b
00000330: c67f ffbb 3942 2f3e bedd fd3d a740 a33d
00000340: 19ff 963b 99fc 17bd 378e 6f3d fff2 063e
00000350: 7305 733b 6f5f 093e 508d 153d 3ac3 893e
00000360: a43f 013e 459c f33d 355f 543d bb83 32be
00000370: b726 03bc be00 ff3c 8672 493e 829c ab3a
00000380: c3cf 303d 3643 34bd 348c b3bd f3cd 9a3c
00000390: 8e09 49bd bbd5 2bbb a868 91bd 60de 5cbc
000003a0: 0c0c 6bbd 4d5b 343c 13e3 9a3c b2ca 193d
000003b0: b7b2 0ebd 8f46 a5bd c256 dcbc b02b d13c
000003c0: 532d 6f3d ffed 4fbd a0bd 7ebd ea32 a6bd
000003d0: cd64 39bd 95c3 b73b 9d6f bd3d 8919 2c3d
000003e0: e2e0 213d 9321 ef3d ac56 933e e779 d13d
000003f0: 9c37 58bc c695 b4bd d4eb 2a3e 8299 883d
-0.0013503474 -0.11194636 0.1395433 -0.11643476 0.09847078 -0.03637174 0.07872057 0.08560842
0.24975038 0.06482646 -0.19053915 0.12781174 0.12171112 0.047224548 0.03710242 0.0559148
0.105018884 -0.059933834 0.09505745 0.047825135 -0.08771605 -0.0024145273 0.1342227 0.044307027
0.05268617 0.15727305 0.0524398 -0.055824302 -0.077476695 0.016015362 -0.0742851 -0.035134856
0.09954923 -0.11065344 0.03559969 0.037953686 -0.12055133 0.03208491 -0.1593916 -0.12020783
0.16288802 -0.0773409 0.07927468 -0.17668399 -0.17661873 -0.028279379 -0.08441452 0.28016213
-0.051576942 0.16758215 0.067412674 -0.16041173 -0.17965195 0.10197497 -0.082734786 0.06497243
0.07003061 -0.033497486 -0.19943678 0.017885737 -0.037104283 0.01425847 0.012477893 0.018908894
0.21679097 -0.09181769 0.02566037 -0.042615287 0.2367217 0.0882412 0.084705316 0.017047904
-0.00376643 -0.05818498 -0.032128096 0.2377873 0.016318226 0.05996201 -0.023954071 -0.08336923
-0.09140086 0.034792736 0.18667991 -0.08936834 -0.15072455 -0.044668898 -0.11119385 -0.09356679
-0.016537096 0.010657469 -0.036644988 -0.10504201 -0.051875055 0.20296597 -0.0862157 -0.13859051
0.027871694 0.00068168354 0.081800625 0.043996915 0.063593015 -0.025650825 0.075772956 0.14987877
-0.0004062644 0.21139559 0.059552506 -0.04636987 0.02188119 -0.03535847 0.071856305 0.008092495
0.039515965 0.13957281 0.25783765 -0.021070108 0.022557937 -0.072707176 -0.123727314 -0.007694732
-0.12822253 0.1289827 -0.17339225 -0.09728103 0.1334891 -0.11881974 -0.21814117 0.00646636
0.04698546 -0.07297641 -0.14896978 0.09104579 0.06761433 -0.11199166 0.09968788 0.004007553
-0.11057522 -0.111734994 -0.06333306 0.049693573 -0.0034970075 0.12645756 0.027575351 -0.1342422
-0.064774424 -0.1955132 -0.124569185 0.1183489 -0.13208577 -0.097100414 -0.017657759 0.10068023
0.042523306 -0.026681485 -0.093838654 -0.05727978 -0.10521374 -0.012170525 -0.00562781 -0.1524794
-0.12670717 -0.12229393 0.026842179 -0.055580325 0.032543678 -0.033829775 -0.055789214 0.06852
0.010542547 0.14119352 -0.013853465 0.019815832 0.021429285 0.02680773 0.17709023 -0.036893316
0.17412747 -0.036279645 -0.078498594 -0.035676964 -0.06835285 0.2073816 -0.06267027 0.24195276
-0.03896874 -0.07565342 -0.010148081 -0.01888728 0.15703508 0.017944492 0.045811806 -0.07032396
0.013476873 -0.0692334 -0.027589072 0.1048199 0.0003864385 0.0024629282 -0.027148739 -0.03880214
0.035788704 0.025008397 0.00058392907 0.003954997 -0.007797214 0.17115106 0.123958096 0.07971316
0.0046080467 -0.03710613 0.058485236 0.13178633 0.0037082105 0.13415311 0.03651172 0.2690676
0.12621933 0.118950404 0.05184861 -0.17433064 -0.008004836 0.031128284 0.19672593 0.0013092908
0.043166887 -0.04400941 -0.08766976 0.018897032 -0.049081378 -0.0026219923 -0.0710004 -0.013480753
-0.057384536 0.011008096 0.018907106 0.03754682 -0.034838405 -0.080700986 -0.026896838 0.025533527
0.058392834 -0.05076408 -0.06219256 -0.0811518 -0.045262147 0.005608032 0.09249804 0.04201654
0.039521106 0.11676326 0.28777063 0.10228329 -0.013196852 -0.088176295 0.16691524 0.06669904

classifier.1.bias f4 [10]
00000000: 6129 3a3d fe54 19be 7b7e de3e 15f2 07bd
00000010: 4418 cfbe db18 2abe e042 373e 8f18 6cbb
00000020: 6d94 3b3e c392 f9bd
0.04544962 -0.14973828 0.43455872 -0.03318985 -0.404482 -0.16611044 0.17896605 -0.003602538
0.18318339 -0.12186196
