models/p03_compvis1.pth (torch, 33976 bytes, 4 tensors)

layer_stack.1.weight f4 [10, 784]
0.029543012 -0.008365098 0.029698974 -0.013787981 0.0046947044 -0.013959812 0.059827235 0.10004296
0.030850127 0.005919043 0.10078104 0.1694827 -0.122444026 0.109694615 0.12711555 -0.08784918
0.0025324724 0.097429805 0.02125272 0.11406571 0.100375265 0.05151872 0.054244872 -0.013482167
-0.008569102 -0.00698789 -0.022089193 0.0023139874 -0.035450608 0.033439126 -0.040038884 0.010222296
-0.024919776 -0.014999389 0.008185925 -0.059258312 -0.073317 0.015539733 0.21011952 0.068741605
-0.2537762 -0.19670561 -0.12778048 -0.22988556 -0.021373069 0.2693791 0.10134397 0.053108048
0.0005105433 -0.0025142652 0.024543554 -0.026978925 0.012240421 0.0079145245 0.01634359 0.005063832
0.00064065366 0.02855902 -0.031821184 -0.033642128 -0.0740656 -0.023092424 -0.02741021 -0.016093835
-0.108299546 -0.08671307 -0.07846083 -0.06489871 -0.05282021 -0.13553092 -0.19684371 -0.050684296
-0.003059509 -0.05051177 -0.016815763 -0.04023526 0.103680864 0.11640688 0.0570515 0.036459092
-0.060203593 -0.012823325 -0.021996386 0.015491531 -0.0066489736 0.021923853 -0.04045915 -0.0574045
-0.023298739 0.014891059 0.038530707 -0.15410413 -0.23010749 -0.10999286 0.06916496 0.06710127
0.002284595 -0.072842084 -0.112374835 -0.046204206 0.0048669768 0.08689275 0.03749847 -0.07340934
-0.11909684 0.038560368 0.139608 0.059233714 -0.0077350484 0.007212699 -0.012734115 0.013836638
-0.03036495 -0.022746405 -0.03957273 -0.028991716 -0.052526385 0.010324249 -0.10404095 -0.152126
-0.11901155 0.047666673 -0.0059955516 -0.027061492 -0.0074015697 -0.034224927 -0.03290378 -0.023164157
-0.03209069 0.034767743 0.08079803 -0.02522416 -0.00792771 -0.038543098 0.09492627 0.072667986
-0.041276593 -0.0047047744 -0.0077727307 0.0036933227 -0.026580429 0.016203048 -0.07008057 -0.06380065
-0.01727499 0.00203847 -0.05335027 -0.00017034079 -0.08504615 0.02147978 -0.07028167 0.022493633
0.03386954 0.077156246 0.017206274 0.02407552 0.03267594 -0.043402262 -0.07872758 0.002254545
0.054659825 0.056858435 0.031954564 0.111218974 0.014951689 0.0018423535 0.010726841 -0.01614451
-0.01904749 -0.0419515 -0.067906216 -0.06439667 -0.03218156 -0.040000666 -0.080965266 -0.0753075
-0.07156271 -0.057647582 -0.111525975 -0.049565155 -0.035493974 -0.036462624 0.03929712 0.088833235
-0.0024540322 -0.07841672 -0.09488686 -0.031183885 0.09613108 0.09668835 0.08842281 0.13531725
0.088228196 -0.03612644 -0.07839232 -0.0220133 -0.0049518356 -0.027910104 -0.063430175 -0.11829489
-0.045059975 -0.013859689 -0.09128609 -0.12801547 -0.13492824 -0.122984186 -0.09295644 -0.11258277
-0.05373291 0.01480724 0.1484633 0.030764746 -0.05680089 -0.06262046 -0.060514424 -0.062249918
0.0011911802 0.06652816 0.00075463235 0.06945255 0.047806144 -0.11024065 -0.061493475 -0.045097247
0.016864007 -0.032262944 -0.09208215 -0.1230839 -0.07985654 -0.13088645 -0.121866524 -0.1421382
-0.088754684 -0.050219964 0.012033464 -0.073183015 -0.037310205 0.0445469 0.10770583 0.15355161
-0.05557924 -0.010613477 0.023296779 -0.010418116 -0.05217979 -0.04927817 -0.01087929 0.049522843
0.020248003 -0.08870348 -0.040662743 0.012782606 -0.027466744 -0.09471539 -0.1497836 -0.09306845
00000000: 3004 f23c c40d 09bc 434b f33c fce6 61bc
00000010: 09d6 993b b2b7 64bc 670d 753d 53e3 cc3d
00000020: 68b9 fc3c 88f4 c13b 4a66 ce3d df8c 2d3e
00000030: efc3 fabd 92a7 e03d 942a 023e 45ea b3bd
00000040: d6f7 253b 4789 c73d 2f1a ae3c 489b e93d
00000050: 8c91 cd3d 4b05 533d df2f 5e3d 4fe4 5cbc
00000060: 6b65 0cbc acfa e4bb 65f4 b4bc 44a6 173b
00000070: a834 11bd 77f7 083d d0ff 23bd 6b7b 273c
00000080: 8f24 ccbc ffbf 75bc 421e 063c d8b8 72bd
00000090: 3927 96bd 5d9a 7e3c 9229 573e 66c8 8c3d
000000a0: f4ee 81be 326d 49be e3d8 02be 1f67 6bbe
000000b0: 9316 afbc 0fec 893e 6d8d cf3d d387 593d
000000c0: fbd5 053a 5fc6 24bb 900f c93c e802 ddbc
000000d0: 0c8c 483c ecab 013c fee2 853c 80ee a53b
000000e0: 8af1 273a 9bf4 e93c ee56 02bd 54cc 09bd
000000f0: b5af 97bd 532c bdbc 608b e0bc 38d7 83bc
00000100: 27cc ddbd 9f96 b1bd 12b0 a0bd 9de9 84bd
00000110: 015a 58bd 9ec8 0abe 6691 49be 569a 4fbd
00000120: 0b82 48bb 6ee5 4ebd 36c1 89bc bacd 24bd
00000130: a256 d43d bb66 ee3d d5ae 693d 2156 153d
00000140: 0b98 76bd ec18 52bc c431 b4bc 31d0 7d3c
00000150: a2df d9bb a799 b33c 7eb8 25bd fb20 6bbd
00000160: ffdc bebc a1f9 733c 60d2 1d3d 79cd 1dbe
00000170: 4ca1 6bbe f043 e1bd 5ca6 8d3d 646c 893d
00000180: 25b9 153b 3b2e 95bd c724 e6bd 9f40 3dbd
00000190: 297b 9f3b d3f4 b13d ff97 193d a357 96bd
000001a0: 0be9 f3bd 7af1 1d3d 66f5 0e3e 0d9f 723d
000001b0: 4a76 fdbb 8158 ec3b c0a2 50bc 11b3 623c
000001c0: eabf f8bc ab56 babc 0417 22bd 0980 edbc
000001d0: e825 57bd 0a27 293c 6c13 d5bd ebc6 1bbe
000001e0: 54bc f3bd 213e 433d 5576 c4bb 10b0 ddbc
000001f0: de88 f2bb 702f 0cbd 1dc6 06bd c2c2 bdbc
00000200: 8771 03bd 9f68 0e3d 7079 a53d e6a2 cebc
00000210: 3ae3 01bc 5edf 1dbd b468 c23d f4d2 943d
00000220: a511 29bd 822a 9abb 64b2 febb ac0b 723b
00000230: 33bf d9bc 41bc 843c 6786 8fbd eaa9 82bd
00000240: 4884 8dbc da97 053b d085 5abd 829d 32b9
00000250: ad2c aebd 5df6 af3c d6ef 8fbd 9144 b83c
00000260: c9ba 0a3d 1804 9e3d 2cf4 8c3c 063a c53c
00000270: 35d7 053d 92c6 31bd ed3b a1bd fdc0 133b
00000280: fbe2 5f3d 64e4 683d cae2 023d c6c6 e33d
00000290: eef7 743c 207b f13a a2bf 2f3c 7e41 84bc
000002a0: 7b09 9cbc 56d5 2bbd 6a12 8bbd 67e2 83bd
000002b0: d0d0 03bd bdd7 23bd 1ed1 a5bd d23a 9abd
000002c0: 788f 92bd df1f 6cbd bb67 e4bd d504 4bbd
000002d0: 2162 11bd d559 15bd 04f6 203d 33ee b53d
000002e0: d4d3 20bb f298 a0bd 0b54 c2bd 5975 ffbc
000002f0: 5fe0 c43d 8b04 c63d 0517 b53d 9b90 0a3e
00000300: fcb0 b43d 51f9 13bd 278c a0bd 3c55 b4bc
00000310: 0243 a2bb bba3 e4bc aee7 81bd 9744 f2bd
00000320: cf90 38bd c013 63bc 34f4 babd 7d16 03be
00000330: a12a 0abe 22df fbbd f25f bebd cc91 e6bd
00000340: 0a17 5cbd 119a 723c c306 183e 5906 fc3c
00000350: 0da8 68bd 283f 80bd f9dd 77bd c5f9 7ebd
00000360: 6021 9c3a ea3f 883d 85d2 453a 233d 8e3d
00000370: 60d0 433d dac5 e1bd 95e0 7bbd e4b7 38bd
00000380: 6326 8a3c 2626 04bd 9195 bcbd 6913 fcbd
00000390: d38b a3bd 1907 06be 2895 f9bd ad8c 11be
000003a0: 04c5 b5bd 73b3 4dbd 0228 453c fae0 95bd
000003b0: 96d2 18bd cf76 363d e094 dc3d a23c 1d3e
000003c0: 0fa7 63bd 26e4 2dbc e3d8 be3c bfb0 2abc
000003d0: 7aba 55bd e8d7 49bd 0d3f 32bc 77d8 4a3d
000003e0: 24df a53c 2caa b5bd fa8d 26bd 236e 513c
000003f0: f001 e1bc 24fa c1bd df60 19be ac9a bebd

layer_stack.1.bias f4 [10]
0.48416275 1.1309844 -0.5190652 0.6723514 0.59087056 -0.3387847 0.048135594 -0.1917924
0.8733727 -0.22165042
00000000: 2ee4 f73e 19c4 903f 75e1 04bf 391f 2c3f
00000010: 4b43 173f 3075 adbe d429 453d 3a65 44be
00000020: 5a95 5f3f 54f8 62be

layer_stack.2.weight f4 [10, 10]
-0.6158967 -0.06819458 0.42785284 0.2588835 0.6060299 -0.077474125 -0.48529848 -0.1526888
0.42779553 0.34574103 0.3294307 -0.5649407 0.0045148362 -0.21890952 0.058921322 -0.92303306
-0.31328434 -0.07484402 -0.7987117 0.7530709 -0.46255141 0.1997075 0.30038235 -0.49319005
0.5104883 0.3830834 -0.33588573 -0.4731296 0.020006696 0.55427307 -0.5679631 0.47745645
-0.1607722 0.28434828 0.4316944 0.012267217 -0.6201941 -0.12516817 -0.47007135 -0.068790905
-0.5399946 -0.14200118 0.28935587 -0.63830686 0.88944286 0.51685226 -0.29027602 0.004646328
-0.35980797 0.24676387 1.509891 0.56356347 0.018625084 0.3164577 -0.15021086 -0.17512663
1.3686147 0.0020522107 0.31681982 -1.0368627 -0.69607174 -0.25541243 -0.19485861 0.019511003
0.6619994 0.53188384 -0.106675655 -0.31433782 0.16789113 0.45023313 0.56284434 0.3680456
-0.06266806 0.24288276 -1.2714468 -0.3950076 0.60152453 1.1738833 -0.16360842 -0.052158777
-0.27221614 -0.046520133 -0.22917846 -0.81560844 -0.06960281 0.3418307 -0.5514229 0.28065434
0.70799184 -0.49320176 0.33802912 -0.3857472 0.637781 0.46688265 -1.6929053 0.07317228
0.9367896 0.042730838 -0.35977787 -0.7441415
00000000: 68ab 1dbf 9aa9 8bbd 870f db3e 618c 843e
00000010: c724 1b3f c1aa 9ebd 0b79 f8be 745a 1cbe
00000020: 0408 db3e f804 b13e 24ab a83e f49f 10bf
00000030: 31f1 933b d129 60be 7c57 713d e54b 6cbf
00000040: ce66 a0be d247 99bd 5f78 4cbf 41c9 403f
00000050: 8ad3 ecbe 1f80 4c3e b7cb 993e 6883 fcbe
00000060: 5caf 023f 8223 c43e 37f9 abbe 0b3e f2be
00000070: 15e5 a33c d7e4 0d3f 0866 11bf 2c75 f43e
00000080: 78a1 24be 1996 913e 0c07 dd3e 70fc 483c
00000090: 0ac5 1ebf 162c 00be 31ad f0be 3fe2 8cbd
000000a0: 163d 0abf c268 11be 7426 943e 1468 23bf
000000b0: 87b2 633f 6e50 043f 0f9f 94be 3940 983b
000000c0: c038 b8be abaf 7c3e 1c44 c13f b245 103f
000000d0: a293 983c be06 a23e e0d0 19be 6554 33be
000000e0: c42e af3f 627e 063b 3536 a23e ebb7 84bf
000000f0: c231 32bf 6bc5 82be 0489 47be 8ad5 9f3c
00000100: cb78 293f 8a29 083f c478 dabd e3f0 a0be
00000110: a7eb 2b3e f584 e63e 9116 103f 7970 bc3e
00000120: 1d58 80bd 42b6 783e c5be a2bf 703e cabe
00000130: 83fd 193f cf41 963f f788 27be 71a4 55bd
00000140: ea5f 8bbe e58b 3ebd c2ad 6abe b7cb 50bf
00000150: eb8b 8ebd 6f04 af3e 0d2a 0dbf edb1 8f3e
00000160: f43e 353f f184 fcbe 2712 ad3e a880 c5be
00000170: 9e45 233f 3e0b ef3e 1fb1 d8bf 59db 953d
00000180: 71d1 6f3f 8806 2f3d ce34 b8be 0f80 3ebf

layer_stack.2.bias f4 [10]
0.36743906 -0.14055109 0.25191307 0.39727336 -0.6583179 1.0276285 0.8997386 -0.07139323
-0.40354934 -1.2301785
00000000: f920 bc3e a0ec 0fbe c0fa 803e 6a67 cb3e
00000010: 8687 28bf 5589 833f 4555 663f 9d36 92bd
00000020: 059e cebe 7d76 9dbf
