models/p03_compvis2.pth (torch, 34064 bytes, 4 tensors)

layer_stack.1.weight f4 [10, 784]
0.0065492326 -0.012555909 0.011009013 0.009240676 -0.027958512 0.04688605 0.047348067 0.068267584
-0.027602311 -0.024465114 0.10789929 0.23234308 0.055582743 0.17091362 0.14274125 0.15802175
0.20980856 0.12873873 -0.03429238 -0.045062434 -0.024628023 0.08192424 0.050522555 -0.0114542255
0.012449435 -0.026367117 -0.0077180513 -0.009727793 -0.019494928 0.024697257 -0.017092213 -0.03999224
0.0021679436 0.015765792 0.07523373 -0.11452845 -0.0006129805 0.2815536 0.25545415 0.20091495
0.08316723 0.22985551 0.25283805 0.058322378 0.002915711 0.10270518 0.13101123 0.02448772
-0.22280157 -0.105743945 0.0053890534 0.015648127 0.0018281519 0.015242043 0.020555178 0.010117514
-0.023893075 0.008216241 0.021081172 -0.00052796677 -0.019819466 -0.0665744 -0.10877702 -0.007635257
0.21433231 0.22010675 -0.0014175419 -0.07082156 -0.20506585 -0.080220364 0.0009761813 -0.19661975
-0.17044932 -0.08649055 0.03210727 0.077149294 -0.061331112 -0.21019298 -0.12371649 -0.050891105
0.01640931 0.025217146 -0.020811481 -0.018347811 0.019741029 0.005740292 -0.014147512 0.017679084
-0.049836967 -0.114237085 -0.13180722 0.054305263 -0.007937605 -0.010870122 -0.016871754 0.066486254
-0.09158808 0.040036444 0.065481275 0.009201142 -0.022799594 -0.094958544 -0.15496628 -0.105531484
-0.18204665 -0.21228111 -0.19988944 -0.09906498 -0.053531837 -0.032165367 0.026519438 -0.013021629
0.025817864 -0.018412458 -0.0225591 -0.004555137 -0.10011505 -0.16865644 -0.17796625 -0.013832777
0.028665103 -0.01921401 0.06822561 0.14383096 0.022422507 -0.00984733 0.03250306 0.00205765
0.03416855 -0.06113664 -0.114974186 -0.08201291 -0.13748245 -0.24479546 -0.35338593 -0.15094975
-0.078237616 -0.037419416 -0.04047229 -0.035041947 -0.020976562 -0.025747532 -0.0057063606 -0.02835604
-0.13632314 -0.24412507 -0.14123622 0.05383915 0.07677351 0.09496139 0.061859015 0.09874622
0.02546123 0.0070945895 0.06961198 0.07162603 0.07065653 0.0018120998 0.0067924205 -0.09231552
-0.16188876 -0.19371542 -0.34579593 -0.21913803 -0.13122532 -0.08376053 -0.0029790679 0.003265142
-0.027147949 0.03081384 0.02341132 -0.019911114 -0.11483409 -0.33045 -0.056612663 0.06268233
-0.0057998155 0.14833261 0.083729595 0.115052834 0.065107055 -0.025877977 0.015324426 -0.03451818
0.08199625 0.1348976 0.1684256 0.15835464 -0.029987743 -0.116064996 -0.34311718 -0.34182137
-0.18921666 -0.10572659 -0.085034505 -0.05061992 -0.010758768 0.013170335 0.014629688 -0.073058225
-0.18218389 -0.25822517 0.01909051 0.03132697 -0.06538847 0.16467516 0.058891512 0.09129425
0.034795508 -0.004365187 -0.020334963 -0.035697594 0.044489734 0.08832683 0.26627567 0.19120625
0.029714564 -0.07641948 -0.23069371 -0.3857394 -0.25561666 -0.16181491 -0.11423842 -0.030702142
-0.00971459 0.025575625 -0.006819957 -0.0959816 -0.1805027 -0.16494118 0.09425525 -0.03403228
-0.12654336 0.044553578 0.05604095 0.06347329 -0.03495351 0.017556136 -0.07291688 -0.14758486
0.0074963323 0.05763465 0.11803902 -0.05270556 -0.12326941 -0.03546776 -0.14031261 -0.2931709
-0.2123159 -0.092566475 -0.071345024 -0.010627953 0.020895477 0.038883314 -0.0040393677 -0.052244313
00000000: f29a d63b 4db7 4dbc 265f 343c 3466 173c
00000010: 4009 e5bc 960b 403d 0cf0 413d e0cf 8b3d
00000020: 3e1e e2bc 106b c8bc 4efa dc3d 58eb 6d3e
00000030: bbaa 633d fb03 2f3e c32a 123e 74d0 213e
00000040: 0ed8 563e 16d4 033e 2b76 0cbd 6393 38bd
00000050: b5c0 c9bc e5c7 a73d bdf0 4e3d 81aa 3bbc
00000060: b7f8 4b3c daff d7bc b5e7 fcbb 5261 1fbc
00000070: d4b3 9fbc e751 ca3c f804 8cbc e7ce 23bd
00000080: 0f14 0e3b 4327 813c 2414 9a3d e48d eabd
00000090: 6db0 20ba cb27 903e e3ca 823e a6bc 4d3e
000000a0: 9553 aa3d 3e5f 6b3e fd73 813e 72e3 6e3d
000000b0: 8315 3f3b 1857 d23d cf27 063e 799a c83c
000000c0: 1826 64be 4890 d8bd a896 b03b 8030 803c
000000d0: 999e ef3a c3b9 793c 5563 a83c eec3 253c
000000e0: 69bb c3bc 6a9d 063c 6cb2 ac3c 4067 0aba
000000f0: 6f5c a2bc 2958 88bd 7cc6 debd 2e31 fabb
00000100: ee79 5b3e aa63 613e d0cc b9ba e50a 91bd
00000110: c8fc 51be 934a a4bd 6be6 7f3a b056 49be
00000120: 448a 2ebe f521 b1bd ea82 033d 7300 9e3d
00000130: 5536 7bbd d43c 57be 125f fdbd 3173 50bd
00000140: d16c 863c 3094 ce3c d77c aabc 264e 96bc
00000150: f0b7 a13c 0f19 bc3b f7ca 67bc bad3 903c
00000160: d921 4cbd 22f5 e9bd 79f8 06be 326f 5e3d
00000170: ba0c 02bc 9918 32bc a236 8abc f229 883d
00000180: 8892 bbbd 41fd 233d 0c1b 863d 63c0 163c
00000190: 37c6 babc a079 c2bd 7baf 1ebe e420 d8bd
000001a0: 706a 3abe 3860 59be d1af 4cbe 95e2 cabd
000001b0: 3344 5bbd d5bf 03bd 4b3f d93c ac58 55bc
000001c0: fc7f d33c b9d5 96bc ddcd b8bc 4243 95bb
000001d0: 1f09 cdbd 46b4 2cbe c93c 36be dfa2 62bc
000001e0: 14d3 ea3c b366 9dbc deb9 8b3d 6c48 133e
000001f0: 68af b73c b256 21bc ee21 053d a3d9 063b
00000200: 52f4 0b3d 6a6a 7abd 9677 ebbd 62f6 a7bd
00000210: 33c8 0cbe a9ab 7abe 00ef b4be 9292 1abe
00000220: 0b3b a0bd 1a45 19bd 46c6 25bd 2588 0fbd
00000230: 0ad7 abbc 7dec d2bc 6cfc babb ed4a e8bc
00000240: 4b98 0bbe ecfb 79be 3aa0 10be 7186 5c3d
00000250: 6e3b 9d3d 1e7b c23d e15f 7d3d 753b ca3d
00000260: 1294 d03c bb79 e83b ba90 8e3d abb0 923d
00000270: 5fb4 903d fb83 ed3a f492 de3b eb0f bdbd
00000280: 2bc6 25be 565d 46be 2a0c b1be b865 60be
00000290: ee5f 06be a48a abbd 773c 43bb fefb 553b
000002a0: 6065 debc 4e6d fc3c 19c9 bf3c a21c a3bc
000002b0: 232e ebbd be30 a9be aee2 67bd 985f 803d
000002c0: 610c bebb 81e4 173e 6c7a ab3d d2a0 eb3d
000002d0: d956 853d 0dfe d3bc 4d13 7b3c ef62 0dbd
000002e0: a6ed a73d 9922 0a3e c377 2c3e b827 223e
000002f0: dba8 f5bc 7cb3 edbd 0ead afbe 3603 afbe
00000300: 03c2 41be 2f87 d8bd 9226 aebd d556 4fbd
00000310: 8b45 30bc 64c8 573c 5cb1 6f3c 8d9f 95bd
00000320: 6a8e 3abe 1736 84be b463 9c3c b550 003d
00000330: 64ea 85bd 9ba0 283e 3a38 713d 7bf8 ba3d
00000340: bc85 0e3d d809 8fbb 8295 a6bc a437 12bd
00000350: de3a 363d b2e4 b43d 4955 883e 92cb 433e
00000360: f56b f33c d181 9cbd f93a 6cbe a27f c5be
00000370: 30e0 82be cfb2 25be d5f5 e9bd 0f83 fbbc
00000380: f229 1fbc f983 d13c f279 dfbb 0092 c4bd
00000390: b3d5 38be 57e6 28be e608 c13d 6f65 0bbd
000003a0: 9594 01be d07d 363d 328b 653d 49fe 813d
000003b0: 692b 0fbd e3d1 8f3c 7255 95bd 7c20 17be
000003c0: cba3 f53b 5012 6c3d 71be f13d c9e1 57bd
000003d0: ac74 fcbd a446 11bd 1cae 0fbe 7f1a 96be
000003e0: 5769 59be 7e93 bdbd 571d 92bd de20 2ebc
000003f0: fe2c ab3c 1c44 1f3d ac5c 84bb 22fe 55bd

layer_stack.1.bias f4 [10]
0.17633724 0.9528782 -0.80591804 0.82048714 0.35057607 -0.008281671 0.4066946 0.66634053
1.1773679 1.0506805
00000000: c091 343e d3ef 733f a550 4ebf 720b 523f
00000010: b57e b33e d9af 07bc 463a d03e 4b95 2a3f
00000020: feb3 963f b37c 863f

layer_stack.3.weight f4 [10, 10]
-0.014961888 -0.65862876 0.068004295 -0.02210922 0.72106504 0.23159803 0.19299416 -0.33204177
1.2287621 0.14891969 0.91589 0.21699461 -0.86917204 -0.24473338 -0.28191364 1.3669477
0.09080918 -0.22102968 -0.24835086 -0.25311542 -0.06852303 -0.5107483 0.5101113 -0.30696452
-0.56860435 0.27192938 0.26661173 0.9249581 0.95488435 0.17453714 0.74904364 0.39298236
0.034671906 -0.36339644 -0.412175 0.18168591 0.46124342 0.13305897 1.0079261 -0.5524744
0.6120686 -0.45690638 0.7447929 -0.4708609 -0.4643531 0.16926295 1.0646094 0.7342718
0.49539715 -0.20447338 -0.85607225 0.9464117 -0.98474115 1.2554708 -0.23475887 -0.45439833
0.61636436 0.121097736 -0.36447862 0.8423292 -0.096873194 -0.9778976 0.30372056 -0.5116112
0.39192 -0.60765946 0.91326946 0.6780284 1.1862521 0.26763156 0.4578195 0.27059484
-0.13173436 1.2609742 1.0262173 -0.24048682 -1.2051195 0.3663363 -0.975923 0.06992519
-0.08513759 0.5357509 0.984292 -1.0220805 0.5761349 -0.65803057 0.41629803 -0.6873575
0.10576708 1.0230546 -0.43738338 0.6885218 0.54130965 1.5862647 0.02672654 -0.018125748
-0.91681874 -0.85192436 -0.30536085 -0.85548544
00000000: b522 75bc e59b 28bf d645 8b3d 651e b5bc
00000010: b897 383f 0928 6d3e 43a0 453e 6101 aabe
00000020: 1448 9d3f 677e 183e c477 6a3f d633 5e3e
00000030: 0f82 5ebf 639b 7abe fc56 90be 24f8 ae3f
00000040: 2afa b93d 9b55 62be b04f 7ebe 5898 81be
00000050: cd55 8cbd 67c0 02bf a796 023f 742a 9dbe
00000060: 0e90 11bf 543a 8b3e 5581 883e 0eca 6c3f
00000070: 4d73 743f ddb9 323e 53c1 3f3f fc34 c93e
00000080: 2104 0e3d 190f babe 9a08 d3be df0b 3a3e
00000090: 1928 ec3e 9c40 083e b903 813f f66e 0dbf
000000a0: 87b0 1c3f a2ef e9be bfaa 3e3f ae14 f1be
000000b0: b1bf edbe 4453 2d3e 1f45 883f 3df9 3b3f
000000c0: b2a4 fd3e 7861 51be 8d27 5bbf 0a48 723f
000000d0: ff17 7cbf 44b3 a03f a164 70be e6a6 e8be
000000e0: 0eca 1d3f 1702 f83d f19c babe e3a2 573f
000000f0: 7465 c6bd 7f57 7abf 4381 9b3e f4f8 02bf
00000100: bda9 c83e 928f 1bbf 07cc 693f 4593 2d3f
00000110: 1cd7 973f 0107 893e 5167 ea3e 688b 8a3e
00000120: 5fe5 06be 9a67 a13f 175b 833f 2d42 76be
00000130: 5b41 9abf 6e90 bb3e 17d6 79bf f034 8f3d
00000140: 9e5c aebd f926 093f 8ffa 7b3f 89d3 82bf
00000150: 947d 133f b174 28bf 0425 d53e a9f6 2fbf
00000160: 699c d83d 74f3 823f b7f0 dfbe f742 303f
00000170: 4593 0a3f b90a cb3f 9ef1 da3c 737c 94bc
00000180: a2b4 6abf b717 5abf 4258 9cbe 1801 5bbf

layer_stack.3.bias f4 [10]
0.68112916 -0.26589146 0.3298348 0.2604715 -0.7016209 1.0028929 0.70482546 -0.12736683
-0.1026097 -1.1596489
00000000: 7b5e 2e3f ed22 88be 1be0 a83e 855c 853e
00000010: 6d9d 33bf cb5e 803f 716f 343f 736c 02be
00000020: 0925 d2bd 606f 94bf
