models/p03_compvisionpull4.pth (torch, 35040 bytes, 10 tensors)

conv_block_1.0.weight f4 [10, 1, 3, 3]
000000 fd 04 df 3d 75 39 a6 3e 5a d2 a5 be f7 2a 81 3e
       0.10889623 0.3246571 -0.32387048 0.25228092
000010 1c 91 7c 3e f5 f9 99 3d d5 82 ca be 94 a0 71 3e
       0.2466473 0.07518379 -0.39552942 0.23596412
000020 90 e6 af 3e cf 1b 12 bf 81 8a fd 3e a5 a8 68 3d
       0.34355593 -0.5707368 0.49519733 0.056801457
000030 b7 b2 e1 bc ab 70 c1 3e c0 ef 20 3e ce 36 50 be
       -0.027551038 0.3778127 0.15716457 -0.20333406
000040 e4 ac f7 3e d6 b1 bd 3d a4 4a c6 be 4d de 64 bd
       0.48374093 0.09262435 -0.3872882 -0.055876065
000050 f7 8c 2d bd c6 70 15 bf b7 59 25 bf 8c 25 74 3b
       -0.042370763 -0.58375204 -0.6459002 0.0037253825
000060 97 e8 3a bf 5f 69 2e bf 14 17 97 be ce 81 f4 be
       -0.73011154 -0.68129534 -0.29509795 -0.47755283
000070 00 34 79 bf 0b d8 36 bf 56 43 f6 3e dd 00 18 bf
       -0.9734497 -0.71423405 0.48098248 -0.5937632
000080 e8 a3 35 3e c5 81 89 3e b2 90 02 be d5 ff e3 3e
       0.17738307 0.2685682 -0.1275051 0.44531122
000090 ab dd 6d bd 9a 3d f0 3e e7 7c af bd 38 e2 85 be
       -0.058072727 0.46921998 -0.08568745 -0.26149154
0000a0 f5 63 a9 3e c5 6b 85 be 55 2e 0e be d8 d3 d7 3e
       0.33084074 -0.26058784 -0.13884862 0.4215381
0000b0 d3 f3 e2 bc 6c 6a 17 be 91 a3 3c 3e 5c dc 4b 3d
       -0.027704155 -0.1478669 0.1842177 0.049770698
0000c0 52 96 2b 3e c4 11 52 be 9b 91 a9 be 03 b9 03 be
       0.16756561 -0.2051459 -0.331189 -0.12863545
0000d0 f5 88 83 be e9 7f 83 3e 00 d2 30 3e a4 c9 96 3e
       -0.25690427 0.25683525 0.17267609 0.29450715
0000e0 b8 90 91 bd 8e 82 ae 3d fc d7 9d 3e a7 a9 c9 be
       -0.07107681 0.08520995 0.30828846 -0.39387247
0000f0 c0 18 27 3d 0f 19 bd be d3 b3 2b be ca 2d 24 be
       0.040795088 -0.3693318 -0.16767816 -0.16033092
000100 33 95 50 bc 9c 97 38 be 2b b8 ab 3e 3d 9a 70 be
       -0.012730884 -0.18026584 0.33538947 -0.23496337
000110 67 4b 91 be dc 70 2d be 76 79 b3 3e e3 33 0a 3e
       -0.2837784 -0.16937584 0.35053605 0.13496356
000120 05 64 fd 3e 49 8d bf be 5f 9a 00 bf bd 38 67 be
       0.4949037 -0.3741248 -0.5023555 -0.22580238
000130 f2 2f a1 be 25 8b 40 3c 3d b3 c3 3e fa c3 0b 3f
       -0.31481892 0.011751925 0.38222685 0.5459591
000140 fe 04 17 be 13 de 68 be a0 8a 34 3e 33 79 0a be
       -0.14747998 -0.22740965 0.17631006 -0.13522796
000150 13 d2 4d 3e 02 e5 a3 bd 45 e0 41 3e ca b8 84 be
       0.20099668 -0.08002664 0.18933208 -0.25922233
000160 9c 68 2c be af 26 ce 3d
       -0.1683678 0.10065972

conv_block_1.0.bias f4 [10]
000000 da 21 8d 3d 3a d9 05 bd cf 9d 84 3e 7b fd 3a 3e
       0.06891222 -0.032677867 0.25901648 0.18260758
000010 27 1b a5 3c af 36 4f be 6c 67 bd 3d a2 62 95 bd
       0.020154549 -0.20235704 0.09248242 -0.07294203
000020 83 00 f2 bd 6c cb a5 be
       -0.11816504 -0.3238176

conv_block_1.2.weight f4 [10, 10, 3, 3]
000000 40 ac 2b bd f8 2e b4 bc ee 4d ab 3c de fd 71 be
       -0.041912317 -0.021995053 0.020911183 -0.23631999
000010 85 e4 89 be f0 a4 6a be 53 66 40 be c0 67 87 be
       -0.2693216 -0.22914481 -0.18789034 -0.26446342
000020 d4 0d 53 be 0b c5 e8 bd e5 62 a9 3d 23 57 ce bb
       -0.20610744 -0.11365708 0.08270816 -0.0062970086
000030 16 39 22 be 1b d5 84 be e5 8e 74 be 15 5d 21 be
       -0.15842089 -0.25943837 -0.23882635 -0.15758164
000040 7c bf 58 be 02 c4 52 be c0 88 50 3d b0 a0 2a 3d
       -0.21166795 -0.20582584 0.050911665 0.04165715
000050 83 6e 80 3d 8f 12 3b 3e 67 58 a1 3e a7 26 58 3e
       0.062710784 0.18268798 0.31512758 0.21108495
000060 11 ad 21 3c 1c 49 9c 3d 61 57 a7 3d e5 d4 42 be
       0.009867922 0.07631132 0.08170963 -0.19026525
000070 32 45 ac bc 6a 2d 27 be c5 28 d2 3a 64 60 5e 3c
       -0.021029089 -0.16325918 0.0016033879 0.013572786
000080 fe 10 fa bd cd 04 c3 3d ea 83 e5 3d 93 a5 89 3d
       -0.12210272 0.095224 0.11206801 0.06721034
000090 b2 ad ed bd cf 43 f1 bd 98 3f 13 ba 1f 72 5a bd
       -0.116053954 -0.117805116 -0.0005617081 -0.05333149
0000a0 bb ba 06 3d bc 59 e4 bd 3f 78 c6 3d 83 12 d9 bd
       0.032892924 -0.11149928 0.09690904 -0.10599234
0000b0 3b ea 07 bd 8a dc b7 3c 45 ae 5f 3d 43 3e ae 3d
       -0.033182364 0.022444028 0.054609556 0.08507969
0000c0 57 7a c5 3d b7 ba aa bd 9e c4 ed 3c d9 97 3a bd
       0.09642475 -0.08336394 0.029024418 -0.04555497
0000d0 2c 7c 42 bc b1 d9 9e bd 7e b2 18 3e 45 14 75 bd
       -0.011870425 -0.07756365 0.1491184 -0.059833784
0000e0 05 12 51 3c 51 4a 8c 3d cc ff 71 3d 24 68 8d bd
       0.012760644 0.06850112 0.059081838 -0.06904629
0000f0 5a 2e 6a 3d 17 cf ec bc 59 4d c6 bd 46 16 c3 bd
       0.05717311 -0.028907342 -0.09682722 -0.09525733
000100 27 ae 35 3d 9f c7 6e bc 0f f8 0c bd 26 7f ae 3d
       0.044355538 -0.014573961 -0.034416255 0.085203454
000110 cb 35 b9 3c 3d ac 5a bd 9c 53 46 bd 75 ac c2 bc
       0.022608658 -0.053386915 -0.04841958 -0.023763875
000120 24 f4 a2 3d 0b a1 86 bc 6a 76 61 bd 03 b7 97 bd
       0.079567224 -0.016434213 -0.05504457 -0.074079536
000130 55 d1 ba bd 9e 84 28 3d e0 41 ec 3d 9f cc b0 bd
       -0.09121958 0.0411421 0.11536002 -0.086327784
000140 ab c2 61 3c 86 0a 5f 3d af 8a 9c 3c 5e ad 19 bd
       0.013779323 0.054453395 0.019109098 -0.03751885
000150 7d 57 61 3d c6 e4 62 3d 9a 79 21 3d d8 bc 97 bc
       0.055015076 0.055393957 0.03942261 -0.018522665
000160 57 a4 e4 bc 1c ac 38 3c 95 b8 b8 bc 9d 08 34 bd
       -0.027910395 0.011271503 -0.022548953 -0.043953527
000170 ca 59 64 3d 57 e0 c8 3d ee 70 50 3a fe c1 0d bd
       0.055749692 0.098084144 0.0007951398 -0.034608833
000180 de e3 f0 ba 82 16 ef 3c c6 a6 12 3d 05 23 b1 3c
       -0.0018378457 0.029185537 0.03580358 0.021623144
000190 35 e8 e1 bd f1 b0 5d bd 98 5d b9 3d 06 6b 47 3d
       -0.11030618 -0.054123823 0.09051055 0.04868605
0001a0 64 dd ae bc 6a 91 9e bd d2 81 4e bd 5d 22 b5 bd
       -0.021345802 -0.07742579 -0.050416775 -0.08844445
0001b0 22 10 0f bd b4 2f 07 3d 97 b9 87 3d 57 55 49 3d
       -0.034927495 0.033004478 0.06627195 0.049153652
0001c0 2d b6 c1 bd 59 6b 8b bd 38 98 82 bc 34 ec d4 3d
       -0.094585754 -0.06807584 -0.015941724 0.10396615
0001d0 23 00 27 3c 88 ad d9 bc 0a e1 16 3d e3 85 26 bd
       0.010192904 -0.026572004 0.036835708 -0.040655028
0001e0 a4 f7 7b bd 23 0e af 3d 31 81 07 bd bd a0 b0 bc
       -0.061515465 0.08547618 -0.03308219 -0.021561021
0001f0 4d 35 ee bd 96 8f b0 3d 1e 43 8a 3d 71 41 f9 3c
       -0.1163126 0.08621137 0.06751083 0.030426713
000200 9c ef a3 bd ca 0f f4 bd 15 b0 b8 bd e2 f3 94 3d
       -0.08004686 -0.11917074 -0.0901796 0.072730795
000210 1b a1 31 3d 82 28 bf 3d 08 32 53 3d 00 75 da 3c
       0.043366533 0.09333898 0.051561385 0.026667118
000220 c7 88 88 ba 04 2b a4 bd 3f f8 b8 bd 95 f4 c9 bd
       -0.0010416739 -0.08016017 -0.09031724 -0.098611034
000230 3b bf 30 3d 23 62 54 bd ac d4 ae bc d5 a9 78 bd
       0.04315112 -0.051851403 -0.021341644 -0.06070884
000240 75 a5 ea bc 5f 31 98 bd 11 1f 84 bd 4c 49 0b 3d
       -0.02864335 -0.07431292 -0.06451238 0.03400545
000250 da e7 dd bc 43 5e 89 3d 1b 8f f6 bc f7 7e a7 bd
       -0.027088095 0.06707432 -0.030097535 -0.081785135
000260 6e 78 b7 bc 64 58 39 bd 06 ef 00 bd 79 05 cf bd
       -0.022396293 -0.04525031 -0.03147795 -0.10108466
000270 88 64 84 3d 5e f0 7c bd 17 41 6e 3d 87 71 41 3d
       0.06464487 -0.06175267 0.058167543 0.04722741
000280 9c 9a a4 3d c3 8e 9b bd 12 5c 94 3d b1 89 3b bd
       0.08037302 -0.07595589 0.072441235 -0.04578561
000290 b9 9c 0b 3d 1a bc a8 3d 87 c5 93 bc 8c e7 26 3c
       0.03408501 0.082390025 -0.018038524 0.010187041
0002a0 8f de 36 bd e8 1f b6 bd a5 9d 7a 3d a1 4e d6 bd
       -0.044645842 -0.088928044 0.061185498 -0.10464216
0002b0 5c 04 86 3d 3f 87 a1 3d ca 1c cc 3d b5 b1 cb bc
       0.065438 0.07887124 0.099664286 -0.02486501
0002c0 e3 62 b1 bd 4f 2e c2 3c f4 85 6e 3d 73 dc d6 bd
       -0.08661439 0.023703722 0.058233216 -0.10491266
0002d0 1e 5b c4 bc fe e9 81 bd 4b df 24 bc e7 69 5b bd
       -0.02396923 -0.063434586 -0.010063003 -0.053567793
0002e0 4d f1 33 bd b4 af 10 bd 1c 99 dd bd e5 80 a4 3d
       -0.043931294 -0.035323814 -0.10820219 0.08032397
0002f0 ac bd ad 3d 05 a1 86 bc 88 c4 4c bc 14 b7 33 bd
       0.08483443 -0.016434202 -0.012498029 -0.04387577
000300 cd 07 c8 bd a4 44 d2 bd 4e 51 16 3d 37 ed 7d bd
       -0.09767113 -0.102669984 0.036698632 -0.061993804
000310 97 92 97 bd f5 76 7b bc 64 ba 15 bd 1d 36 18 bd
       -0.07401007 -0.015348186 -0.03655471 -0.03716098
000320 99 b7 4f 3a 33 43 bc bc 05 1e 1a bd 26 8e 55 bd
       0.00079237815 -0.022981262 -0.037626285 -0.052137516
000330 8d a2 af bd 13 a4 b3 3d af 61 2e bd 3a f3 cb 3c
       -0.08575926 0.08771529 -0.042573627 0.024896253
000340 61 05 21 bd 93 ff b1 3b b8 a3 ba 3d 0c ae 30 3d
       -0.03931177 0.005432078 0.09113258 0.043134734
000350 35 dc c1 bd 82 27 11 3d 3b 17 b4 3d b4 85 aa 3c
       -0.09465829 0.03543807 0.08793493 0.020815708
000360 43 65 91 3d a7 d3 d4 3d 2c 21 85 bc ac 66 b4 3c
       0.07099392 0.10391932 -0.01625117 0.022021614
000370 30 d2 95 bd 86 7d b5 bc 61 0e 9d 3d a8 4a 58 3d
       -0.07315481 -0.02215458 0.07668758 0.052805573
000380 51 95 8d bd 06 1c ad bd f6 85 93 bd a9 0b d5 bd
       -0.069132455 -0.08452611 -0.072032854 -0.104026146
000390 7b 94 a6 bd df 24 d6 bc 18 d6 91 3d 0a 32 90 3c
       -0.08133789 -0.026140628 0.07120913 0.017601985
0003a0 87 1c a4 bd eb 2e ad bd fa 08 4f 3d 24 f7 a3 bd
       -0.08013254 -0.084562145 0.05054567 -0.08006123
0003b0 15 46 6d bc 17 9f 49 3d 17 c0 4e bd 0a fc 48 bc
       -0.014482041 0.049223986 -0.05047616 -0.012267122
0003c0 10 fc 32 bc de 89 cb bc 03 ce 5b bd e5 59 c0 bd
       -0.010924354 -0.024846014 -0.053663265 -0.09392146
0003d0 c3 86 ae bd 6c 49 67 bd 8b 68 cc 3d 59 66 50 bd
       -0.085217975 -0.056466505 0.099808775 -0.050878856
0003e0 7c 18 92 bd d0 2d c3 3c c5 02 d6 3c 4a 28 68 3d
       -0.07133576 0.023825556 0.026124367 0.056679048
0003f0 6e 42 9f 3d fb 19 71 3d 08 13 d6 bd 8e a4 d8 3b
       0.07776342 0.058862668 -0.10452849 0.0066114133

conv_block_1.2.bias f4 [10]
000000 d3 58 db 3e 03 63 3d bd 49 5c 92 bd f9 97 b3 3e
       0.42841205 -0.046237003 -0.07146508 0.35076883
000010 20 ec e3 bd 54 7d 02 3d d8 43 a2 3e 6a a1 8c 3e
       -0.11129022 0.031857803 0.31692386 0.274669
000020 41 77 62 3e 02 9d 25 bd
       0.22115804 -0.040432937

conv_block_2.0.weight f4 [10, 10, 3, 3]
000000 30 55 00 3c c1 f4 7e 3c df 96 06 bb df 12 0e be
       0.00783281 0.015561284 -0.0020536704 -0.13874386
000010 6f a9 ae bc 57 e3 ea 3d c3 92 2f be 94 a7 c6 3d
       -0.021321027 0.11469143 -0.17145829 0.09699932
000020 69 a1 1f 3e 1e b4 55 3d d3 4c c4 bd 63 db 38 bd
       0.15588917 0.052173726 -0.095849656 -0.0451311
000030 1f a9 bd bd 3e 9c 8c bd 63 5b 5b 3d dd 3b 87 bc
       -0.09260773 -0.06865738 0.05355395 -0.016508037
000040 96 9a 23 3d 40 e3 78 bd df 81 81 3c b2 54 82 bd
       0.039942347 -0.060763597 0.015808998 -0.063638106
000050 6c 26 58 3d 5a 70 3d bd 81 83 d8 bc 3a 10 bb bd
       0.052771017 -0.046249725 -0.026429893 -0.09133954
000060 a6 78 aa 39 5c c7 cc 3d e6 46 51 3d b9 31 68 be
       0.00032514817 0.09998962 0.051093005 -0.22675218
000070 90 24 25 be 5a 68 02 be ed ad e6 3c fe 97 5f 3e
       -0.16127229 -0.1273512 0.028159106 0.21835324
000080 c2 de 83 3d 39 8d 17 3d ff a9 40 bc 46 e5 57 bd
       0.06438972 0.036999915 -0.01175928 -0.052708887
000090 07 03 e9 3c b2 30 46 bd 2b 82 93 3d 8c 8f 02 bd
       0.028443826 -0.048386283 0.07202562 -0.03187518
0000a0 48 b1 d7 3d 9c 86 8c 3d e0 e2 d9 bd bb ea 0e bd
       0.105318606 0.06861612 -0.10638976 -0.034891825
0000b0 e8 ba 06 3e 8a 4a 5a bd 08 9b df bd 02 a9 22 be
       0.13157237 -0.053293742 -0.10918242 -0.15884784
0000c0 4f c8 4c bd 71 30 eb bd 12 7e af bd 3f 3a a6 bb
       -0.049995717 -0.11483849 -0.08568968 -0.0050728614
0000d0 05 6f 21 3d 4a 3c a8 3c e6 fd ae be ac 5b 80 3e
       0.039412517 0.02053656 -0.34178084 0.2506994
0000e0 82 7c b7 be 01 55 22 bd 97 e4 b5 3e 04 1b 90 3d
       -0.3583718 -0.039631847 0.35525963 0.07036403
0000f0 e2 12 1e 3e b3 33 be 3d 8e db 21 be 3d 17 8a bc
       0.1543689 0.092872046 -0.1580641 -0.016856784
000100 dc 68 81 3a a4 d0 46 bd da 47 d6 ba 94 5d 1b 3e
       0.000987317 -0.04853882 -0.0016348318 0.15172416
000110 57 4b c7 bd e0 72 8d bd 87 a5 e2 bd 5f e7 d7 bd
       -0.09731167 -0.06906676 -0.11066728 -0.105421774
000120 01 7b 41 be 37 20 65 bd 4f 27 17 be 9a 39 0f 3e
       -0.18894579 -0.055938926 -0.14761089 0.13986817
000130 20 60 81 3e 2a fd 85 3d 5b 1a f0 bc e0 1b c8 bd
       0.2526865 0.06542428 -0.029309442 -0.09770942
000140 26 f2 f0 3c 78 94 1b 3e d7 24 ef bd 94 21 91 3e
       0.02941234 0.15193355 -0.116769485 0.2834593
000150 67 89 30 3e 3e 0b 45 3c d7 c8 b5 3d da 32 f9 3d
       0.17239915 0.012026606 0.08876198 0.12167902
000160 c7 23 f8 3d 91 08 bd 3d 86 21 23 be 62 4d 40 be
       0.12116199 0.092301495 -0.15930757 -0.18779519
000170 04 5f b8 be 65 e0 0b 3e 6b 82 0f be 98 94 07 be
       -0.3600999 0.13659818 -0.14014594 -0.13240278
000180 12 29 b4 3d bf 7e cb 3d ce 42 0a bd 74 2e 1c 3d
       0.08796896 0.09936284 -0.033755116 0.03813024
000190 dc 8c 61 bd fd 71 e8 bd 03 42 3f bd e5 c5 91 3d
       -0.055065975 -0.113498665 -0.046693813 0.071178235
0001a0 26 53 fc bc de 11 ef 3c 8d 58 4a bd 69 77 87 3d
       -0.030801367 0.029183324 -0.049400855 0.066145726
0001b0 de 64 81 3d de bc 17 3d f5 95 5c bd df ab af bd
       0.06318067 0.037045352 -0.053853948 -0.08577704
0001c0 6b 28 88 3b c8 fd 7c bd a5 88 b1 3d ac 6f cf bd
       0.004155209 -0.061765462 0.08668641 -0.101287216
0001d0 6e 72 41 3d b7 6a ff bd cd f7 84 3e 66 8d a0 3e
       0.04722827 -0.12471526 0.25970307 0.31357878
0001e0 53 e7 31 be a9 dc 0a 3f 40 32 f0 3e c5 a6 32 bf
       -0.173734 0.5424295 0.46913338 -0.6978572
0001f0 c4 64 66 be e3 2b e0 bb 39 b8 19 3e b4 b4 35 3e
       -0.22499377 -0.006841169 0.15011682 0.17744714
000200 87 bd 2e be 2d bc 18 3d a7 9b 37 3d 05 b9 b4 bd
       -0.17064486 0.037288833 0.044826176 -0.08824352
000210 03 1b 05 be 82 e8 8c be 25 92 18 bd 82 7f e5 bc
       -0.12998585 -0.2752114 -0.03724875 -0.028014902
000220 86 49 5c be f2 c6 e7 bd c8 c3 bb 3e 23 ca a2 3e
       -0.21512422 -0.11317243 0.36672807 0.31794843
000230 04 be cc bd 74 a5 a5 bd f5 af 17 3c b4 66 f2 3d
       -0.0999718 -0.08088198 0.00925826 0.11835995
000240 a1 fd 2e be 1a 1b ce be 77 f6 83 3e 1b ff 49 bd
       -0.17088939 -0.40255052 0.25773975 -0.049315553
000250 17 71 e6 be f6 92 e6 3e f4 08 24 3d 3a a7 ca be
       -0.45008156 0.45033997 0.0400476 -0.3958071
000260 48 8a a6 bd 1e e0 6b 3d e0 34 3b be 97 f5 21 3e
       -0.08131844 0.05758678 -0.18281889 0.15816341
000270 73 0d b1 3c 15 3c 47 3d bc 86 13 3d 86 19 3f bd
       0.021612858 0.048641283 0.036017165 -0.0466552
000280 9d 34 e7 bd 51 f3 c4 bc 42 45 48 be 84 2e 69 be
       -0.11289332 -0.024041804 -0.1955767 -0.2277165
000290 86 5b 97 3e 7b dc a5 3d 8c 12 10 3d a6 26 a8 3e
       0.29562014 0.08098694 0.035173938 0.32841986
0002a0 dc a8 22 bc 4e 83 9b be 16 06 97 3c 09 7b 39 3e
       -0.0099279545 -0.30373615 0.01843552 0.1811334
0002b0 f9 83 79 be 6d 5d b4 be 54 2c 05 3e 21 b3 cb bd
       -0.2436675 -0.35227528 0.13005191 -0.099462755
0002c0 84 65 6a be be a8 26 be f0 40 8d bd 8f 10 87 3e
       -0.22890288 -0.16275308 -0.068971515 0.2637982
0002d0 da 66 be bd ab cd 40 3d 93 88 fb 3c fb 6d f1 bd
       -0.09296961 0.04707114 0.030704772 -0.11788555
0002e0 91 b0 15 be fd 7e 07 be db 50 9e bd 49 8c d6 bd
       -0.14618136 -0.13232036 -0.07730266 -0.10475976
0002f0 e2 d6 39 bd 12 ae cd bc 11 2c 58 bd 72 36 0f bd
       -0.045370944 -0.025107417 -0.0527764 -0.034964032
000300 f0 af 1b bd 62 74 d4 3d 0b 79 1f bd 0d 2a 9a bd
       -0.038009584 0.10373761 -0.038933795 -0.07527552
000310 07 b4 31 3d 55 1f f2 bb c0 56 a5 3d f0 e2 86 3d
       0.043384578 -0.007388989 0.08073187 0.06586254
000320 84 7a c6 3d bd 13 9e bd 3d df 8a 3d 53 6a b5 3d
       0.09691337 -0.077186085 0.067808606 0.0885817
000330 b2 13 55 bd 4b 74 c6 3d ca ce a1 3d a2 51 09 bc
       -0.052020736 0.0969015 0.0790077 -0.008381279
000340 86 6a 9c bb 3b 4b 4e bd e5 21 cf bd 0b 0b 54 3d
       -0.004773441 -0.050364714 -0.10113887 0.051768344
000350 c6 63 82 3d 8b 42 de bd 76 97 00 3e 33 af 9c 3b
       0.063666865 -0.10852536 0.12557778 0.0047816276
000360 c9 ad a9 3d b6 48 97 3d 98 7f 24 3d 65 d6 71 bd
       0.082851 0.073869154 0.040160745 -0.059042353
000370 d6 da 8a 3d a7 75 69 3d 3b e1 a4 3b b2 12 b0 3d
       0.06780021 0.056996968 0.0050317324 0.08597316
000380 93 fc 02 3e 1f e3 ab bd e6 8e d6 bd 69 95 1f bd
       0.12791662 -0.08392929 -0.104764745 -0.038960848
000390 e4 b7 ca 3b d3 88 32 3d 4b 24 9e bd ab f2 18 bc
       0.0061864723 0.043587517 -0.07721766 -0.0093352
0003a0 81 68 aa 3a 2d 87 2b bd 4b e9 9a 3d 02 df 8f ba
       0.0013001115 -0.04187696 0.07564028 -0.0010976496
0003b0 86 0a 34 be f7 9d 76 bb d0 7a 4a bd 03 96 27 bd
       -0.1758214 -0.0037630775 -0.04943353 -0.040914547
0003c0 53 d1 82 bd 75 6f 20 be d0 b1 86 bd 40 7f 8b bc
       -0.06387582 -0.15667517 -0.06576884 -0.017028451
0003d0 f5 ab 64 bd 18 ae 70 3d 5a 2f 93 bc 9c 73 82 3d
       -0.055828054 0.05875978 -0.017966915 0.06369707
0003e0 1e 18 d3 3b 9c 23 d7 bd b4 14 13 3c 54 20 76 3d
       0.006442084 -0.10504839 0.008977104 0.060089424
0003f0 2e 90 b6 bd 85 13 c1 bd 42 bc 27 3d da 0b a1 3d
       -0.08914219 -0.09427551 0.04095102 0.07863589

conv_block_2.0.bias f4 [10]
000000 36 25 e7 bd 3c 4f a9 3e d8 8a b5 bd 03 6e 12 be
       -0.11286394 0.33068264 -0.08864373 -0.14299779
000010 24 7e 04 bd b7 83 63 3d 07 b7 78 3e 1f 05 db 3e
       -0.03234686 0.055545535 0.2428857 0.42777345
000020 fd af 38 3f d9 ae a4 bd
       0.72143537 -0.08041162

conv_block_2.2.weight f4 [10, 10, 3, 3]
000000 b6 bc 27 bd 17 9f 1b be b6 6c 93 3d 43 c9 b6 3d
       -0.040951453 -0.15197407 0.07198469 0.089251064
000010 52 db 92 3d 3f 32 48 3d 96 67 3d 3e 66 98 b1 bd
       0.07170738 0.048876043 0.18496546 -0.08671646
000020 09 95 4e 3e 3f 72 0c bc 65 1b 77 be be d8 41 bd
       0.2017404 -0.00857216 -0.24131544 -0.047325842
000030 8a f1 8e 3d 7a 32 c2 3c 24 07 bf be 0d 0d 1e 3e
       0.06979664 0.02370571 -0.37310135 0.15434666
000040 eb be 1c 3e 7f ee 35 bf 44 d0 4c bc 18 da aa bd
       0.15307204 -0.7106704 -0.012500826 -0.08342379
000050 6f 9c 02 3e b9 c5 2e be 6d 4f 98 3c c1 5e 18 3d
       0.12754987 -0.17067613 0.01859256 0.03719974
000060 af 76 7a 3c f0 51 d9 3b 0f a7 0e be b0 9b 3b bd
       0.015287085 0.006632082 -0.13930915 -0.045802772
000070 c4 6d fc 3d 50 a3 35 bd 18 37 02 bd 44 09 ab ba
       0.12325624 -0.0443452 -0.031790823 -0.0013049026
000080 ff 58 af 39 7b ea a4 3c 3a db b7 bc 6f bd 9f 3d
       0.00033444908 0.02013134 -0.022443403 0.077998035
000090 79 40 25 bd 94 0b 48 3d ad ce b6 3b b1 77 0a 3c
       -0.04034469 0.048839167 0.005578837 0.008451388
0000a0 3a d9 1d bc 67 3f 39 bc 35 fc 50 bd 4e c7 7c bd
       -0.00963431 -0.01130662 -0.051021773 -0.06171351
0000b0 58 db 75 bd 83 d4 86 be 7c fd 3e be c0 ad 78 3e
       -0.060023636 -0.2633401 -0.18651384 0.2428503
0000c0 fb 26 3b be 27 55 d4 bc 2b 77 0d 3e 9d d0 e6 3d
       -0.18276589 -0.02591951 0.1381499 0.112702586
0000d0 52 95 06 3d a0 a1 80 3d c9 72 ed be d3 7b dc be
       0.032857247 0.062808275 -0.46376637 -0.4306322
0000e0 29 f5 27 bf 23 24 2f be 86 5c 86 3b 67 33 fd 3e
       -0.6560846 -0.17103629 0.004100385 0.4945328
0000f0 65 c1 b0 bd 68 ae 9f 3d 26 6f fa 3e 00 90 16 3e
       -0.08630637 0.07796937 0.48912925 0.14703369
000100 79 66 08 3e 04 ae 8c be b4 5d 85 3c d3 f5 b0 3d
       0.1332034 -0.27476513 0.016280033 0.08640637
000110 60 dc 8c be 8f 5c 9a 3c b2 bd 01 be f6 d3 0b be
       -0.27511883 0.018842964 -0.1267002 -0.13655075
000120 e6 f4 d7 3e 93 8e db 3d c5 19 33 3c 3c a3 30 be
       0.4217903 0.10720553 0.010931437 -0.17249769
000130 b8 75 e2 be ea 98 b0 3e ef 33 c3 be e6 06 8b be
       -0.44230437 0.34491664 -0.3812556 -0.271537
000140 08 d5 56 3e 64 eb 7c be 50 7b 11 3e bb cc d2 bd
       0.20979702 -0.2469917 0.14207196 -0.102929555
000150 36 a4 21 3d 1c b9 33 bd 2f c5 53 be 02 98 40 be
       0.039463244 -0.043877706 -0.20680688 -0.18807986
000160 3b 19 c3 bd c0 15 8a 3c 07 ef 0e bd 37 4f 40 be
       -0.09526297 0.016856074 -0.034895923 -0.18780218
000170 39 c6 8f 3c 6f 03 f5 bd 1f c9 57 be b1 a7 2c 3c
       0.017550575 -0.119635455 -0.21072815 0.010538028
000180 2f 62 f6 3d 54 48 fc bd df d4 f0 3c 71 e9 cd 3e
       0.12030446 -0.12318483 0.02939838 0.40217164
000190 ca c2 66 be a1 6b 73 be 60 64 bd 3e 22 a5 9c be
       -0.22535244 -0.23771526 0.36990643 -0.30594736
0001a0 ea 41 42 3d 56 db f6 bd 6b 1d 10 bf 9f 6a 65 3e
       0.04742614 -0.12053554 -0.5629489 0.22403954
0001b0 60 cf 8f ba 12 0c f9 bc 6d bb 7e bb 69 2f 19 3c
       -0.0010971837 -0.030401263 -0.0038869039 0.009349682
0001c0 1a 0b 9f bd 43 5c 7b bd aa dd dc bd ef 80 b9 bd
       -0.07765789 -0.061367285 -0.107844666 -0.09057795
0001d0 43 8d 6b bd 8d 8e ba bd 20 9a e8 bc f9 b1 78 3d
       -0.057507765 -0.09109221 -0.028393805 0.060716603
0001e0 50 aa 27 3c d7 f9 22 be 89 d9 b9 bd 83 6b 07 bd
       0.010233477 -0.15915619 -0.09074695 -0.033061516
0001f0 d3 49 9d bd 25 c3 f6 3b 50 b9 13 3c f1 94 85 3d
       -0.076800965 0.0075305873 0.00901635 0.06522549
000200 06 9b 07 bd 61 97 8d 3c 29 d3 51 bd 61 5f 94 3c
       -0.033106826 0.017284097 -0.05122677 0.018111886
000210 c3 16 5b 3d 37 cc ec bd 28 f8 61 bd c1 e7 99 bd
       0.053488504 -0.115623884 -0.0551683 -0.07514907
000220 9c cc 87 bd f3 15 e7 bc ca c9 fb bd b1 65 a3 bd
       -0.06630823 -0.028208708 -0.122943476 -0.079783805
000230 7e 9c 0e 3d 70 6e da bc c5 3f d8 3e 4e 13 1b 3e
       0.03481721 -0.026663989 0.42236152 0.15144083
000240 4f f8 cc be 38 6a 6e be d6 8d 23 3e e3 2a 8e be
       -0.40033194 -0.23282707 0.15972075 -0.27767095
000250 e5 76 01 3e d1 a0 58 be 5c ef 63 be 36 8b f4 3e
       0.12643011 -0.21155097 -0.22259277 0.4776246
000260 8d 1b d4 be 9e eb 2f 3e 47 47 5c bd 62 04 31 3d
       -0.4142727 0.17179725 -0.053778913 0.04321707
000270 bc e3 79 bb 79 64 38 be 85 25 a0 3c bf 9d ec 3d
       -0.0038130125 -0.18007077 0.01954914 0.11553525
000280 71 51 aa be dc 24 8c 3b 94 fb 2d be 5e 7a 66 be
       -0.3326526 0.004276855 -0.169905 -0.22507617
000290 0a 51 13 be 0b 5a a2 3d 2a 99 0e be e0 e1 88 be
       -0.14386383 0.079273306 -0.13925615 -0.2673483
0002a0 1d 2b 02 bc a4 72 1f 3d 58 42 85 bd ea f8 ce bd
       -0.007944849 0.03892769 -0.06506795 -0.1010607
0002b0 aa 9a 9d 3b 4a 55 82 3e 6a e2 69 bd e7 da 97 bd
       0.004809697 0.25455695 -0.05710069 -0.07414799
0002c0 32 97 b6 bd 01 88 6c 3e 50 45 14 3e 78 4f 29 be
       -0.08915557 0.23098756 0.14479566 -0.16534221
0002d0 c8 a0 41 3e 33 55 5c 3b 80 80 08 3e e0 fb 3d bd
       0.1890899 0.0033620119 0.13330269 -0.046382785
0002e0 66 86 fb bc b3 15 40 3e 36 e0 4c bd 24 6b b1 3d
       -0.030703735 0.18758278 -0.05001851 0.086630136
0002f0 78 77 2a 3d 61 18 6b be dc a0 cc bc fe 99 79 be
       0.04161784 -0.22958519 -0.024979047 -0.2437515
000300 a3 c9 55 be bf 88 9f 3d d4 01 c9 bd 4c 08 11 3c
       -0.208777 0.07789754 -0.09814802 0.008852076
000310 af a7 75 3d 31 bd ef bb fd 79 43 3d 85 14 c6 3c
       0.05997437 -0.0073162545 0.04772376 0.024179706
000320 3b 96 28 ba 7a de 20 3d 91 bb d4 3d 3e 50 ae 3d
       -0.00064310775 0.03927467 0.10387338 0.08511399
000330 3e 45 9f 3d 37 e7 99 3c 27 4f a0 3d 46 52 af bd
       0.07776879 0.01878701 0.07827597 -0.08560614
000340 91 6b 9b 3d 4f 9d b0 3d 20 21 8c 3d 60 79 7d bb
       0.07588876 0.08623754 0.068422556 -0.0038677081
000350 50 23 44 bd 9a 8c 87 3d 82 28 33 bd c8 6e c2 3c
       -0.04788524 0.066186145 -0.043739803 0.023734465
000360 01 3b 44 3d 99 7b f1 bd 98 69 61 bc f9 5b 29 bd
       0.047907833 -0.117911525 -0.013758086 -0.041347478
000370 d6 97 88 3d 58 bc a5 bd bf a2 4b 3d c4 35 7a 3d
       0.066695854 -0.08092564 0.049715754 0.06108643
000380 1a 87 42 3d c6 a6 72 3e f2 14 9e 3d a3 ef 0e bd
       0.047492124 0.23696432 0.07718839 -0.034896504
000390 e1 9f 0c 3e 01 7b 4b 3d 4b 10 76 3d 53 43 6e be
       0.13732864 0.049677853 0.060074132 -0.2326787
0003a0 ea ef a0 bd 74 73 bc bb 0b ea 99 3e c7 90 98 3d
       -0.0785826 -0.005751068 0.30061373 0.07449489
0003b0 83 39 df 3c 42 c3 ba 3a 58 d8 21 be 57 64 d5 3c
       0.027249103 0.0014248865 -0.15805185 0.026048822
0003c0 ca 75 b1 be 88 4a 0f be c6 c9 b6 3d d4 e5 fd 3c
       -0.34660178 -0.13993275 0.08925204 0.03099338
0003d0 06 3c ea 3d eb 7f 14 bd 99 7c 4d be 89 cb 13 be
       0.1143723 -0.036254805 -0.20067061 -0.14433111
0003e0 5e 5c 6c 3d 64 bf 5a 3d 45 c5 5c bd 76 70 c4 bd
       0.057705276 0.05340518 -0.05389907 -0.09591763
0003f0 16 23 67 be 7e ea 31 be 96 32 f1 bd 90 7e b8 bd
       -0.22571978 -0.17374608 -0.117772266 -0.09008515

conv_block_2.2.bias f4 [10]
000000 b6 42 94 bd 6f fe 77 3e e6 7c 0b be c4 66 4a bd
       -0.072392866 0.24218152 -0.13621864 -0.04941441
000010 57 c3 8b be ca 10 88 3e 32 3b 30 bd 80 c4 21 3e
       -0.2729747 0.2657531 -0.043025203 0.15797615
000020 bc fe ae bd 10 70 8c 3c
       -0.085446805 0.01714328

classifier.1.weight f4 [10, 490]
000000 93 52 a6 3d 31 7e f4 bd 8c 1c 9c 3c 74 50 12 bc
       0.081212185 -0.119381316 0.019056581 -0.008930314
000010 87 2e cf 3d db e9 1a 3e af 86 cc 3d 64 f4 d1 bc
       0.10116296 0.15128271 0.09986626 -0.02562923
000020 a8 4e 83 bb 70 39 00 be a1 27 30 bd 75 46 cd bb
       -0.0040071793 -0.1252191 -0.043006543 -0.0062645026
000030 d5 2e 2b 3e e0 4f 77 bd a8 24 42 bd 46 18 13 be
       0.16717084 -0.06037891 -0.04739824 -0.14364728
000040 c9 40 03 be 82 b0 9e bc c0 f2 23 3e 71 ed bf bc
       -0.12817682 -0.019371275 0.1601057 -0.02342865
000050 46 61 06 be 93 d5 c0 bc d4 89 84 3d 24 55 3c bd
       -0.13123044 -0.02353934 0.06471601 -0.045979634
000060 8c 64 46 3d 3d 62 6f 3e 0a 09 68 3e 60 d1 74 bd
       0.048435733 0.23377319 0.22659698 -0.059769988
000070 26 82 66 bc ef 36 c6 3b 95 c2 00 be 90 07 ca bd
       -0.014069116 0.006049029 -0.12574227 -0.09864724
000080 bd b6 20 3e 6e d0 62 bd 2c bf 75 bc c5 6f 15 bc
       0.15694709 -0.055374555 -0.014999192 -0.009120886
000090 08 54 14 be d4 16 71 be 82 3b d3 bd 3d ea 63 be
       -0.1448518 -0.23543864 -0.103140846 -0.22257324
0000a0 79 8f 6a bd 4e c5 8b bc 54 df 09 3d e0 b4 60 be
       -0.057265732 -0.017061856 0.033660248 -0.21943998
0000b0 71 5e 08 be 60 61 39 3d 3a e1 57 3d 55 c7 18 3e
       -0.13317277 0.04525888 0.052705027 0.14919789
0000c0 ae 80 b8 bc 0d cb bd 3d c6 35 e7 bd 57 2e 54 3e
       -0.022522297 0.092672445 -0.11289553 0.20720802
0000d0 3f 83 95 bd 6f 9f 68 bd 0b 4e 2e 3e 58 37 80 3d
       -0.07300424 -0.056792673 0.17021959 0.06260556
0000e0 d7 f4 68 3d ac f8 3f bd 23 bd fb 3d c6 ee 01 be
       0.056874122 -0.04686801 0.12291934 -0.12688741
0000f0 ac 96 57 bc 1d 45 4a 3d d7 1c 15 bc fa da 6d bd
       -0.013158482 0.049382318 -0.009101114 -0.05807016
000100 6c 21 10 3e c4 25 a5 bd e5 7d ef bd ab 7e 7a 3e
       0.1407525 -0.08063844 -0.11693934 0.24462382
000110 a8 14 f1 bd 57 96 0d bc 3b ad af bd a8 f4 23 3e
       -0.11771518 -0.008641801 -0.08577963 0.16011298
000120 36 c5 02 bd 3c be 0f be 8f 77 44 3e 03 85 45 bd
       -0.031926356 -0.14037412 0.19186233 -0.048222553
000130 ea eb 64 be ae ff b5 bc 20 03 61 3e 42 ec f1 3c
       -0.22355619 -0.022216644 0.21973848 0.029531602
000140 4e 00 0a be f5 9a 14 bd b8 ce d1 3b e5 b2 ee bd
       -0.13476679 -0.03628059 0.0064028166 -0.11655215
000150 dd bd ae bd 29 5b e1 3c d2 9c c8 bd 93 be 0a be
       -0.08532307 0.027509289 -0.09795536 -0.13549261
000160 b9 97 07 be 2c 57 a1 bd e2 aa 5f 3d a6 26 ef 3b
       -0.13241471 -0.07877955 0.054606326 0.0072983084
000170 d8 ec aa bb 6e ce e3 3d d3 90 20 3d be 67 c5 bd
       -0.0052162223 0.11123358 0.039200615 -0.09638928
000180 36 df 23 3c 54 af 4c bd b2 cf 7c 3d 5d 9e 65 3d
       0.010001948 -0.049971893 0.06172151 0.05605923
000190 0d 79 3d bd 9b 6f d4 3d 94 2b eb 3b 41 80 ff 3d
       -0.04625802 0.103728496 0.007176826 0.12475634
0001a0 3c 1d 2b bc 51 8b 97 3c fa 8c 4f 3d 9b 14 62 3c
       -0.010443982 0.018499048 0.050671555 0.013798858
0001b0 30 dc 87 3d b7 51 14 3e 6b 6f 00 3e be 53 8d 3d
       0.06633794 0.14484297 0.12542503 0.06900738
0001c0 36 6b e0 bc 51 f0 22 3d bf 97 19 3d 8d ff 19 3c
       -0.027394872 0.039779965 0.037498232 0.009399307
0001d0 88 28 cf 3d f4 24 0a 3d 52 51 2b 3d b1 8d 09 3c
       0.101151526 0.033726647 0.0418256 0.008395598
0001e0 0a f0 c1 bc 5b 80 83 3c 37 33 5c 39 27 14 ab 3c
       -0.02367403 0.016052416 0.00020999914 0.020883633
0001f0 c6 47 84 bd 7d 66 0d 3d d2 9c 28 bd 1e e0 9e bd
       -0.06459002 0.03452157 -0.04116518 -0.07757591
000200 04 77 8a 3d c5 0c b4 3c c2 54 af bc 89 94 50 bd
       0.06760982 0.021978745 -0.02140272 -0.050922904
000210 e0 f5 1c 3c 7b 55 2b 3d 25 5b eb 3c a3 37 c0 3b
       0.009580106 0.041829567 0.028729985 0.0058660074
000220 e4 25 f4 3c 15 67 50 bd 0a 3a 1d 3d 08 e3 d4 bc
       0.029803224 -0.050879557 0.03838543 -0.025987163
000230 43 d3 a1 bc 0f c7 5b bc c1 3d 4e 3c d5 67 76 3d
       -0.019754058 -0.0134141585 0.0125879655 0.060157616
000240 5b 34 df bc 5a 27 16 bd 6e 78 96 bd e9 57 4e 3e
       -0.027246645 -0.036658622 -0.07347189 0.20150723
000250 96 ba 04 be 36 d9 de bd e8 50 0f 3c 81 23 e7 3d
       -0.12961802 -0.108812734 0.008747317 0.11286069
000260 a3 b8 72 3d 60 33 b3 bc eb bf 26 bd 57 4d cf bd
       0.059258115 -0.021875083 -0.04071037 -0.10122173
000270 ae 33 28 be a2 d8 dd bc 31 85 86 3d 8c be d2 bd
       -0.16425964 -0.027080838 0.06568373 -0.1029025
000280 9c 9c 18 be 97 ab fa bd 72 5b e1 3b b7 e2 00 be
       -0.14903492 -0.122397594 0.006877356 -0.12586485
000290 12 56 4a 3d 5a 6e 27 3b 40 98 6a bd 30 e7 9b 3d
       0.04939849 0.0025547952 -0.057274103 0.07612455
0002a0 56 52 36 3c c7 a3 09 3e 05 2b 4a bd 6c d4 64 3d
       0.011128029 0.13441382 -0.049357433 0.055866644
0002b0 cf 45 b5 3c 38 f0 b1 bb 96 c1 1f 3e c4 30 b2 bb
       0.022128014 -0.0054302476 0.15601191 -0.005437942
0002c0 84 96 79 3e 75 8e 24 bd 08 f1 01 bd bd f4 a4 bc
       0.24373823 -0.04017492 -0.031724006 -0.020136232
0002d0 a5 f8 11 bd 94 33 30 3e 8f 91 d3 bd d9 32 a6 3e
       -0.035637517 0.17207175 -0.103304975 0.3246067
0002e0 0b 33 3a bd ee a7 7d bd 69 2b d2 3b 9f 7e 92 bb
       -0.045458835 -0.06192773 0.0064138663 -0.004470661
0002f0 26 91 fd 3d 8a e6 df 3c 6a a1 70 3b 1f aa 02 bd
       0.123812005 0.02733161 0.0036717304 -0.03190052
000300 ae 6b 74 3c 95 05 a7 bd 18 9c 56 bd ec 85 96 3d
       0.014918251 -0.081553616 -0.052394956 0.07349762
000310 53 ca b0 3c 29 b3 cb bb 82 d1 8b bc 19 04 30 bc
       0.02158085 -0.006216426 -0.017067675 -0.010743164
000320 a4 66 2b 3d 5c 93 c6 3a 79 78 b9 bb d2 02 4b bc
       0.041845933 0.0015150118 -0.0056601134 -0.012390809
000330 c0 ee 10 3d a4 97 d0 bb e5 b7 4c bc 2f 6a ac 39
       0.03538394 -0.006365733 -0.012495016 0.0003288551
000340 96 87 f5 bc 49 24 37 bd 4b d4 12 3c 94 22 c7 3c
       -0.029971879 -0.04471234 0.008961747 0.02430848
000350 76 ec 33 3c 2b 23 b9 3c e5 71 36 bd 25 47 55 3e
       0.01098167 0.022599777 -0.044542212 0.2082792
000360 83 b6 a0 bc f1 6f 42 3c 50 49 2d 3d 42 14 51 bd
       -0.019618278 0.011867509 0.042306244 -0.05104471
000370 23 fc a7 3b fa 1e d5 3c 4c e8 54 3e 8d 21 99 bc
       0.0051264926 0.026015747 0.20791739 -0.018692756
000380 3e 42 28 3d bd 8f 1b 3d 67 75 16 bb 57 a5 62 bc
       0.0410788 0.037978876 -0.002295816 -0.013833365
000390 56 01 35 bd b1 b6 5b bd 03 ce 79 b9 73 cd c5 3c
       -0.044190727 -0.053641025 -0.00023823236 0.024145817
0003a0 95 6a 1e bd 73 c7 0c 3c 00 64 bc bc 47 e2 13 bc
       -0.038675863 0.008592474 -0.022996902 -0.009026117
0003b0 1d 90 49 bd 40 ea de bd a7 5b 0b 3d ed bb 8b 3c
       -0.049209703 -0.108845234 0.034022953 0.017057383
0003c0 1c c5 93 bc 69 bf 97 bc 5b 86 3c bd e1 66 30 bd
       -0.018038325 -0.018523889 -0.04602657 -0.043066863
0003d0 8c c4 4b bd 1e 1a d8 3c f4 77 98 3d b9 41 2c 3e
       -0.04974799 0.026379641 0.07444754 0.16821946
0003e0 f9 93 51 bd 3e 1a b5 3c 4f 51 9b 3e b2 ae 85 3d
       -0.05116651 0.02210724 0.3033547 0.06527461
0003f0 2e de af 3d e4 1c fe 3d 7e d9 7f 3d d1 ad 85 3c
       0.08587299 0.12407854 0.062463276 0.016318234

classifier.1.bias f4 [10]
000000 93 fc d7 3d f5 5c 3b be 67 48 e9 3e 2b 36 c7 bd
       0.105462216 -0.18297179 0.4556305 -0.097271286
000010 7c f5 d2 be b0 ae 2a be b1 19 35 3e 6c 69 3f bc
       -0.41202915 -0.166682 0.17685582 -0.011682849
000020 36 39 63 3e 6d 0f 01 be
       0.22189793 -0.1260354
